…
    batch_sampler {
      sampler {
        min_scale: 0.3
        max_scale: 1
        min_aspect_ratio: 0.5
        max_aspect_ratio: 2
      }
      sample_constraint {
        min_jaccard_overlap: 0.9
      }
      max_sample: 1
      max_trials: 50
    }
    batch_sampler {
      sampler {
        min_scale: 0.3
        max_scale: 1
        min_aspect_ratio: 0.5
        max_aspect_ratio: 2
      }
      sample_constraint {
        max_jaccard_overlap: 1
      }
      max_sample: 1
      max_trials: 50
    }
    label_map_file: "labelmap.prototxt"
  }
}
layer {
  name: "conv0"
  type: "Convolution"
  bottom: "data"
  top: "conv0"
  param {
    lr_mult: 0.1
    decay_mult: 0.1
  }
  convolution_param {
    num_output: 32
    bias_term: false
    pad: 1
    kernel_size: 3
    stride: 2
    weight_filler {
      type: "msra"
    }
  }
}
layer {
  name: "conv0/bn"
  type: "BatchNorm"
  bottom: "conv0"
  top: "conv0"
}
layer {
  name: "conv0/scale"
  type: "Scale"
  bottom: "conv0"
  top: "conv0"
  param {
    lr_mult: 0.1
    decay_mult: 0
  }
  param {
    lr_mult: 0.2
    decay_mult: 0
  }
  scale_param {
    filler {
      value: 1
    }
    bias_term: true
    bias_filler {
      value: 0
    }
  }
}
layer {
  name: "conv0/relu"
  type: "ReLU"
  bottom: "conv0"
  top: "conv0"
}
layer {
  name: "conv1/dw"
  type: "Convolution"
  bottom: "conv0"
  top: "conv1/dw"
  param {
    lr_mult: 0.1
    decay_mult: 0.1
  }
  convolution_param {
    num_output: 32
    bias_term: false
    pad: 1
    kernel_size: 3
    group: 32
    weight_filler {
      type: "msra"
    }
    engine: CAFFE
  }
}
layer {
  name: "conv1/dw/bn"
  type: "BatchNorm"
  bottom: "conv1/dw"
  top: "conv1/dw"
}
layer {
  name: "conv1/dw/scale"
  type: "Scale"
  bottom: "conv1/dw"
  top: "conv1/dw"
  param {
    lr_mult: 0.1
    decay_mult: 0
  }
  param {
    lr_mult: 0.2
    decay_mult: 0
  }
  scale_param {
    filler {
      value: 1
    }
    bias_term: true
    bias_filler {
      value: 0
    }
  }
}
layer {
  name: "conv1/dw/relu"
  type: "ReLU"
  bottom: "conv1/dw"
  top: "conv1/dw"
}
layer {
  name: "conv1"
  type: "Convolution"
  bottom: "conv1/dw"
  top: "conv1"
  param {
    lr_mult: 0.1
    decay_mult: 0.1
  }
  convolution_param {
    num_output: 64
    bias_term: false
    kernel_size: 1
    weight_filler {
      type: "msra"
    }
  }
}
layer {
  name: "conv1/bn"
  type: "BatchNorm"
  bottom: "conv1"
  top: "conv1"
}
layer {
  name: "conv1/scale"
  type: "Scale"
  bottom: "conv1"
  top: "conv1"
  param {
    lr_mult: 0.1
    decay_mult: 0
  }
  param {
    lr_mult: 0.2
    decay_mult: 0
  }
  scale_param {
    filler {
      value: 1
    }
    bias_term: true
    bias_filler {
      value: 0
    }
  }
}
layer {
  name: "conv1/relu"
  type: "ReLU"
  bottom: "conv1"
  top: "conv1"
}
layer {
  name: "conv2/dw"
  type: "Convolution"
  bottom: "conv1"
  top: "conv2/dw"
  param {
    lr_mult: 0.1
    decay_mult: 0.1
  }
  convolution_param {
    num_output: 64
    bias_term: false
    pad: 1
    kernel_size: 3
    group: 64
    stride: 2
    weight_filler {
      type: "msra"
    }
    engine: CAFFE
  }
}
layer {
  name: "conv2/dw/bn"
  type: "BatchNorm"
  bottom: "conv2/dw"
  top: "conv2/dw"
}
layer {
  name: "conv2/dw/scale"
  type: "Scale"
  bottom: "conv2/dw"
  top: "conv2/dw"
  param {
    lr_mult: 0.1
    decay_mult: 0
  }
  param {
    lr_mult: 0.2
    decay_mult: 0
  }
  scale_param {
    filler {
      value: 1
    }
    bias_term: true
    bias_filler {
      value: 0
    }
  }
}
layer {
  name: "conv2/dw/relu"
  type: "ReLU"
  bottom: "conv2/dw"
  top: "conv2/dw"
}
layer {
  name: "conv2"
  type: "Convolution"
  bottom: "conv2/dw"
  top: "conv2"
  param {
    lr_mult: 0.1
    decay_mult: 0.1
  }
  convolution_param {
    num_output: 128
    bias_term: false
    kernel_size: 1
    weight_filler {
      type: "msra"
    }
  }
}
layer {
  name: "conv2/bn"
  type: "BatchNorm"
  bottom: "conv2"
  top: "conv2"
}
layer {
  name: "conv2/scale"
  type: "Scale"
  bottom: "conv2"
  top: "conv2"
  param {
    lr_mult: 0.1
    decay_mult: 0
  }
  param {
    lr_mult: 0.2
    decay_mult: 0
  }
  scale_param {
    filler {
      value: 1
    }
    bias_term: true
    bias_filler {
      value: 0
    }
  }
}
layer {
  name: "conv2/relu"
  type: "ReLU"
  bottom: "conv2"
  top: "conv2"
}
layer {
  name: "conv3/dw"
  type: "Convolution"
  bottom: "conv2"
  top: "conv3/dw"
  param {
    lr_mult: 0.1
    decay_mult: 0.1
  }
  convolution_param {
    num_output: 128
    bias_term: false
    pad: 1
    kernel_size: 3
    group: 128
    weight_filler {
      type: "msra"
    }
    engine: CAFFE
  }
}
layer {
  name: "conv3/dw/bn"
  type: "BatchNorm"
  bottom: "conv3/dw"
  top: "conv3/dw"
}
layer {
  name: "conv3/dw/scale"
  type: "Scale"
  bottom: "conv3/dw"
  top: "conv3/dw"
  param {
    lr_mult: 0.1
    decay_mult: 0
  }
  param {
    lr_mult: 0.2
    decay_mult: 0
  }
  scale_param {
    filler {
      value: 1
    }
    bias_term: true
    bias_filler {
      value: 0
    }
  }
}
layer {
  name: "conv3/dw/relu"
  type: "ReLU"
  bottom: "conv3/dw"
  top: "conv3/dw"
}
layer {
  name: "conv3"
  type: "Convolution"
  bottom: "conv3/dw"
  top: "conv3"
  param {
    lr_mult: 0.1
    decay_mult: 0.1
  }
  convolution_param {
    num_output: 128
    bias_term: false
    kernel_size: 1
    weight_filler {
      type: "msra"
    }
  }
}
layer {
  name: "conv3/bn"
  type: "BatchNorm"
  bottom: "conv3"
  top: "conv3"
}
layer {
  name: "conv3/scale"
  type: "Scale"
  bottom: "conv3"
  top: "conv3"
  param {
    lr_mult: 0.1
    decay_mult: 0
  }
  param {
    lr_mult: 0.2
    decay_mult: 0
  }
  scale_param {
    filler {
      value: 1
    }
    bias_term: true
    bias_filler {
      value: 0
    }
  }
}
layer {
  name: "conv3/relu"
  type: "ReLU"
  bottom: "conv3"
  top: "conv3"
}
layer {
  name: "conv4/dw"
  type: "Convolution"
  bottom: "conv3"
  top: "conv4/dw"
  param {
    lr_mult: 0.1
    decay_mult: 0.1
  }
  convolution_param {
    num_output: 128
    bias_term: false
    pad: 1
    kernel_size: 3
    group: 128
    stride: 2
    weight_filler {
      type: "msra"
    }
    engine: CAFFE
  }
}
layer {
  name: "conv4/dw/bn"
  type: "BatchNorm"
  bottom: "conv4/dw"
  top: "conv4/dw"
}
layer {
  name: "conv4/dw/scale"
  type: "Scale"
  bottom: "conv4/dw"
  top: "conv4/dw"
  param {
    lr_mult: 0.1
    decay_mult: 0
  }
  param {
    lr_mult: 0.2
    decay_mult: 0
  }
  scale_param {
    filler {
      value: 1
    }
    bias_term: true
    bias_filler {
      value: 0
    }
  }
}
layer {
  name: "conv4/dw/relu"
  type: "ReLU"
  bottom: "conv4/dw"
  top: "conv4/dw"
}
layer {
  name: "conv4"
  type: "Convolution"
  bottom: "conv4/dw"
  top: "conv4"
  param {
    lr_mult: 0.1
    decay_mult: 0.1
  }
  convolution_param {
    num_output: 256
    bias_term: false
    kernel_size: 1
    weight_filler {
      type: "msra"
    }
  }
}
layer {
  name: "conv4/bn"
  type: "BatchNorm"
  bottom: "conv4"
  top: "conv4"
}
layer {
  name: "conv4/scale"
  type: "Scale"
  bottom: "conv4"
  top: "conv4"
  param {
    lr_mult: 0.1
    decay_mult: 0
  }
  param {
    lr_mult: 0.2
    decay_mult: 0
  }
  scale_param {
    filler {
      value: 1
    }
    bias_term: true
    bias_filler {
      value: 0
    }
  }
}
layer {
  name: "conv4/relu"
  type: "ReLU"
  bottom: "conv4"
  top: "conv4"
}
layer {
  name: "conv5/dw"
  type: "Convolution"
  bottom: "conv4"
  top: "conv5/dw"
  param {
    lr_mult: 0.1
    decay_mult: 0.1
  }
  convolution_param {
    num_output: 256
    bias_term: false
    pad: 1
    kernel_size: 3
    group: 256
    weight_filler {
      type: "msra"
    }
    engine: CAFFE
  }
}
layer {
  name: "conv5/dw/bn"
  type: "BatchNorm"
  bottom: "conv5/dw"
  top: "conv5/dw"
}
layer {
  name: "conv5/dw/scale"
  type: "Scale"
  bottom: "conv5/dw"
  top: "conv5/dw"
  param {
    lr_mult: 0.1
    decay_mult: 0
  }
  param {
    lr_mult: 0.2
    decay_mult: 0
  }
  scale_param {
    filler {
      value: 1
    }
    bias_term: true
    bias_filler {
      value: 0
    }
  }
}
layer {
  name: "conv5/dw/relu"
  type: "ReLU"
  bottom: "conv5/dw"
  top: "conv5/dw"
}
layer {
  name: "conv5"
  type: "Convolution"
  bottom: "conv5/dw"
  top: "conv5"
  param {
    lr_mult: 0.1
    decay_mult: 0.1
  }
  convolution_param {
    num_output: 256
    bias_term: false
    kernel_size: 1
    weight_filler {
      type: "msra"
    }
  }
}
layer {
  name: "conv5/bn"
  type: "BatchNorm"
  bottom: "conv5"
  top: "conv5"
}
layer {
  name: "conv5/scale"
  type: "Scale"
  bottom: "conv5"
  top: "conv5"
  param {
    lr_mult: 0.1
    decay_mult: 0
  }
  param {
    lr_mult: 0.2
    decay_mult: 0
  }
  scale_param {
    filler {
      value: 1
    }
    bias_term: true
    bias_filler {
      value: 0
    }
  }
}
layer {
  name: "conv5/relu"
  type: "ReLU"
  bottom: "conv5"
  top: "conv5"
}
layer {
  name: "conv6/dw"
  type: "Convolution"
  bottom: "conv5"
  top: "conv6/dw"
  param {
    lr_mult: 0.1
    decay_mult: 0.1
  }
  convolution_param {
    num_output: 256
    bias_term: false
    pad: 1
    kernel_size: 3
    group: 256
    stride: 2
    weight_filler {
      type: "msra"
    }
    engine: CAFFE
  }
}
layer {
  name: "conv6/dw/bn"
  type: "BatchNorm"
  bottom: "conv6/dw"
  top: "conv6/dw"
}
layer {
  name: "conv6/dw/scale"
  type: "Scale"
  bottom: "conv6/dw"
  top: "conv6/dw"
  param {
    lr_mult: 0.1
    decay_mult: 0
  }
  param {
    lr_mult: 0.2
    decay_mult: 0
  }
  scale_param {
    filler {
      value: 1
    }
    bias_term: true
    bias_filler {
      value: 0
    }
  }
}
layer {
  name: "conv6/dw/relu"
  type: "ReLU"
  bottom: "conv6/dw"
  top: "conv6/dw"
}
layer {
  name: "conv6"
  type: "Convolution"
  bottom: "conv6/dw"
  top: "conv6"
  param {
    lr_mult: 0.1
    decay_mult: 0.1
  }
  convolution_param {
    num_output: 512
    bias_term: false
    kernel_size: 1
    weight_filler {
      type: "msra"
    }
  }
}
layer {
  name: "conv6/bn"
  type: "BatchNorm"
  bottom: "conv6"
  top: "conv6"
}
layer {
  name: "conv6/scale"
  type: "Scale"
  bottom: "conv6"
  top: "conv6"
  param {
    lr_mult: 0.1
    decay_mult: 0
  }
  param {
    lr_mult: 0.2
    decay_mult: 0
  }
  scale_param {
    filler {
      value: 1
    }
    bias_term: true
    bias_filler {
      value: 0
    }
  }
}
layer {
  name: "conv6/relu"
  type: "ReLU"
  bottom: "conv6"
  top: "conv6"
}
layer {
  name: "conv7/dw"
  type: "Convolution"
  bottom: "conv6"
  top: "conv7/dw"
  param {
    lr_mult: 0.1
    decay_mult: 0.1
  }
  convolution_param {
    num_output: 512
    bias_term: false
    pad: 1
    kernel_size: 3
    group: 512
    weight_filler {
      type: "msra"
    }
    engine: CAFFE
  }
}
layer {
  name: "conv7/dw/bn"
  type: "BatchNorm"
  bottom: "conv7/dw"
  top: "conv7/dw"
}
layer {
  name: "conv7/dw/scale"
  type: "Scale"
  bottom: "conv7/dw"
  top: "conv7/dw"
  param {
    lr_mult: 0.1
    decay_mult: 0
  }
  param {
    lr_mult: 0.2
    decay_mult: 0
  }
  scale_param {
    filler {
      value: 1
    }
    bias_term: true
    bias_filler {
      value: 0
    }
  }
}
layer {
  name: "conv7/dw/relu"
  type: "ReLU"
  bottom: "conv7/dw"
  top: "conv7/dw"
}
layer {
  name: "conv7"
  type: "Convolution"
  bottom: "conv7/dw"
  top: "conv7"
  param {
    lr_mult: 0.1
    decay_mult: 0.1
  }
  convolution_param {
    num_output: 512
    bias_term: false
    kernel_size: 1
    weight_filler {
      type: "msra"
    }
  }
}
layer {
  name: "conv7/bn"
  type: "BatchNorm"
  bottom: "conv7"
  top: "conv7"
}
layer {
  name: "conv7/scale"
  type: "Scale"
  bottom: "conv7"
  top: "conv7"
  param {
    lr_mult: 0.1
    decay_mult: 0
  }
  param {
    lr_mult: 0.2
    decay_mult: 0
  }
  scale_param {
    filler {
      value: 1
    }
    bias_term: true
    bias_filler {
      value: 0
    }
  }
}
layer {
  name: "conv7/relu"
  type: "ReLU"
  bottom: "conv7"
  top: "conv7"
}
layer {
  name: "conv8/dw"
  type: "Convolution"
  bottom: "conv7"
  top: "conv8/dw"
  param {
    lr_mult: 0.1
    decay_mult: 0.1
  }
  convolution_param {
    num_output: 512
    bias_term: false
    pad: 1
    kernel_size: 3
    group: 512
    weight_filler {
      type: "msra"
    }
    engine: CAFFE
  }
}
layer {
  name: "conv8/dw/bn"
  type: "BatchNorm"
  bottom: "conv8/dw"
  top: "conv8/dw"
}
layer {
  name: "conv8/dw/scale"
  type: "Scale"
  bottom: "conv8/dw"
  top: "conv8/dw"
  param {
    lr_mult: 0.1
    decay_mult: 0
  }
  param {
    lr_mult: 0.2
    decay_mult: 0
  }
  scale_param {
    filler {
      value: 1
    }
    bias_term: true
    bias_filler {
      value: 0
    }
  }
}
layer {
  name: "conv8/dw/relu"
  type: "ReLU"
  bottom: "conv8/dw"
  top: "conv8/dw"
}
layer {
  name: "conv8"
  type: "Convolution"
  bottom: "conv8/dw"
  top: "conv8"
  param {
    lr_mult: 0.1
    decay_mult: 0.1
  }
  convolution_param {
    num_output: 512
    bias_term: false
    kernel_size: 1
    weight_filler {
      type: "msra"
    }
  }
}
layer {
  name: "conv8/bn"
  type: "BatchNorm"
  bottom: "conv8"
  top: "conv8"
}
layer {
  name: "conv8/scale"
  type: "Scale"
  bottom: "conv8"
  top: "conv8"
  param {
    lr_mult: 0.1
    decay_mult: 0
  }
  param {
    lr_mult: 0.2
    decay_mult: 0
  }
  scale_param {
    filler {
      value: 1
    }
    bias_term: true
    bias_filler {
      value: 0
    }
  }
}
layer {
  name: "conv8/relu"
  type: "ReLU"
  bottom: "conv8"
  top: "conv8"
}
layer {
  name: "conv9/dw"
  type: "Convolution"
  bottom: "conv8"
  top: "conv9/dw"
  param {
    lr_mult: 0.1
    decay_mult: 0.1
  }
  convolution_param {
    num_output: 512
    bias_term: false
    pad: 1
    kernel_size: 3
    group: 512
    weight_filler {
      type: "msra"
    }
    engine: CAFFE
  }
}
layer {
  name: "conv9/dw/bn"
  type: "BatchNorm"
  bottom: "conv9/dw"
  top: "conv9/dw"
}
layer {
  name: "conv9/dw/scale"
  type: "Scale"
  bottom: "conv9/dw"
  top: "conv9/dw"
  param {
    lr_mult: 0.1
    decay_mult: 0
  }
  param {
    lr_mult: 0.2
    decay_mult: 0
  }
  scale_param {
    filler {
      value: 1
    }
    bias_term: true
    bias_filler {
      value: 0
    }
  }
}
layer {
  name: "conv9/dw/relu"
  type: "ReLU"
  bottom: "conv9/dw"
  top: "conv9/dw"
}
layer {
  name: "conv9"
  type: "Convolution"
  bottom: "conv9/dw"
  top: "conv9"
  param {
    lr_mult: 0.1
    decay_mult: 0.1
  }
  convolution_param {
    num_output: 512
    bias_term: false
    kernel_size: 1
    weight_filler {
      type: "msra"
    }
  }
}
layer {
  name: "conv9/bn"
  type: "BatchNorm"
  bottom: "conv9"
  top: "conv9"
}
layer {
  name: "conv9/scale"
  type: "Scale"
  bottom: "conv9"
  top: "conv9"
  param {
    lr_mult: 0.1
    decay_mult: 0
  }
  param {
    lr_mult: 0.2
    decay_mult: 0
  }
  scale_param {
    filler {
      value: 1
    }
    bias_term: true
    bias_filler {
      value: 0
    }
  }
}
layer {
  name: "conv9/relu"
  type: "ReLU"
  bottom: "conv9"
  top: "conv9"
}
layer {
  name: "conv10/dw"
  type: "Convolution"
  bottom: "conv9"
  top: "conv10/dw"
  param {
    lr_mult: 0.1
    decay_mult: 0.1
  }
  convolution_param {
    num_output: 512
    bias_term: false
    pad: 1
    kernel_size: 3
    group: 512
    weight_filler {
      type: "msra"
    }
    engine: CAFFE
  }
}
layer {
  name: "conv10/dw/bn"
  type: "BatchNorm"
  bottom: "conv10/dw"
  top: "conv10/dw"
}
layer {
  name: "conv10/dw/scale"
  type: "Scale"
  bottom: "conv10/dw"
  top: "conv10/dw"
  param {
    lr_mult: 0.1
    decay_mult: 0
  }
  param {
    lr_mult: 0.2
    decay_mult: 0
  }
  scale_param {
    filler {
      value: 1
    }
    bias_term: true
    bias_filler {
      value: 0
    }
  }
}
layer {
  name: "conv10/dw/relu"
  type: "ReLU"
  bottom: "conv10/dw"
  top: "conv10/dw"
}
layer {
  name: "conv10"
  type: "Convolution"
  bottom: "conv10/dw"
  top: "conv10"
  param {
    lr_mult: 0.1
    decay_mult: 0.1
  }
  convolution_param {
    num_output: 512
    bias_term: false
    kernel_size: 1
    weight_filler {
      type: "msra"
    }
  }
}
layer {
  name: "conv10/bn"
  type: "BatchNorm"
  bottom: "conv10"
  top: "conv10"
}
layer {
  name: "conv10/scale"
  type: "Scale"
  bottom: "conv10"
  top: "conv10"
  param {
    lr_mult: 0.1
    decay_mult: 0
  }
  param {
    lr_mult: 0.2
    decay_mult: 0
  }
  scale_param {
    filler {
      value: 1
    }
    bias_term: true
    bias_filler {
      value: 0
    }
  }
}
layer {
  name: "conv10/relu"
  type: "ReLU"
  bottom: "conv10"
  top: "conv10"
}
layer {
  name: "conv11/dw"
  type: "Convolution"
  bottom: "conv10"
  top: "conv11/dw"
  param {
    lr_mult: 0.1
    decay_mult: 0.1
  }
  convolution_param {
    num_output: 512
    bias_term: false
    pad: 1
    kernel_size: 3
    group: 512
    weight_filler {
      type: "msra"
    }
    engine: CAFFE
  }
}
layer {
  name: "conv11/dw/bn"
  type: "BatchNorm"
  bottom: "conv11/dw"
  top: "conv11/dw"
}
layer {
  name: "conv11/dw/scale"
  type: "Scale"
  bottom: "conv11/dw"
  top: "conv11/dw"
  param {
    lr_mult: 0.1
    decay_mult: 0
  }
  param {
    lr_mult: 0.2
    decay_mult: 0
  }
  scale_param {
    filler {
      value: 1
    }
    bias_term: true
    bias_filler {
      value: 0
    }
  }
}
layer {
  name: "conv11/dw/relu"
  type: "ReLU"
  bottom: "conv11/dw"
  top: "conv11/dw"
}
layer {
  name: "conv11"
  type: "Convolution"
  bottom: "conv11/dw"
  top: "conv11"
  param {
    lr_mult: 0.1
    decay_mult: 0.1
  }
  convolution_param {
    num_output: 512
    bias_term: false
    kernel_size: 1
    weight_filler {
      type: "msra"
    }
  }
}
layer {
  name: "conv11/bn"
  type: "BatchNorm"
  bottom: "conv11"
  top: "conv11"
}
layer {
  name: "conv11/scale"
  type: "Scale"
  bottom: "conv11"
  top: "conv11"
  param {
    lr_mult: 0.1
    decay_mult: 0
  }
  param {
    lr_mult: 0.2
    decay_mult: 0
  }
  scale_param {
    filler {
      value: 1
    }
    bias_term: true
    bias_filler {
      value: 0
    }
  }
}
layer {
  name: "conv11/relu"
  type: "ReLU"
  bottom: "conv11"
  top: "conv11"
}
layer {
  name: "conv12/dw"
  type: "Convolution"
  bottom: "conv11"
  top: "conv12/dw"
  param {
    lr_mult: 0.1
    decay_mult: 0.1
  }
  convolution_param {
    num_output: 512
    bias_term: false
    pad: 1
    kernel_size: 3
    group: 512
    stride: 2
    weight_filler {
      type: "msra"
    }
    engine: CAFFE
  }
}
layer {
  name: "conv12/dw/bn"
  type: "BatchNorm"
  bottom: "conv12/dw"
  top: "conv12/dw"
}
layer {
  name: "conv12/dw/scale"
  type: "Scale"
  bottom: "conv12/dw"
  top: "conv12/dw"
  param {
    lr_mult: 0.1
    decay_mult: 0
  }
  param {
    lr_mult: 0.2
    decay_mult: 0
  }
  scale_param {
    filler {
      value: 1
    }
    bias_term: true
    bias_filler {
      value: 0
    }
  }
}
layer {
  name: "conv12/dw/relu"
  type: "ReLU"
  bottom: "conv12/dw"
  top: "conv12/dw"
}
layer {
  name: "conv12"
  type: "Convolution"
  bottom: "conv12/dw"
  top: "conv12"
  param {
    lr_mult: 0.1
    decay_mult: 0.1
  }
  convolution_param {
    num_output: 1024
    bias_term: false
    kernel_size: 1
    weight_filler {
      type: "msra"
    }
  }
}
layer {
  name: "conv12/bn"
  type: "BatchNorm"
  bottom: "conv12"
  top: "conv12"
}
layer {
  name: "conv12/scale"
  type: "Scale"
  bottom: "conv12"
  top: "conv12"
  param {
    lr_mult: 0.1
    decay_mult: 0
  }
  param {
    lr_mult: 0.2
    decay_mult: 0
  }
  scale_param {
    filler {
      value: 1
    }
    bias_term: true
    bias_filler {
      value: 0
    }
  }
}
layer {
  name: "conv12/relu"
  type: "ReLU"
  bottom: "conv12"
  top: "conv12"
}
layer {
  name: "conv13/dw"
  type: "Convolution"
  bottom: "conv12"
  top: "conv13/dw"
  param {
    lr_mult: 0.1
    decay_mult: 0.1
  }
  convolution_param {
    num_output: 1024
    bias_term: false
    pad: 1
    kernel_size: 3
    group: 1024
    weight_filler {
      type: "msra"
    }
    engine: CAFFE
  }
}
layer {
  name: "conv13/dw/bn"
  type: "BatchNorm"
  bottom: "conv13/dw"
  top: "conv13/dw"
}
layer {
  name: "conv13/dw/scale"
  type: "Scale"
  bottom: "conv13/dw"
  top: "conv13/dw"
  param {
    lr_mult: 0.1
    decay_mult: 0
  }
  param {
    lr_mult: 0.2
    decay_mult: 0
  }
  scale_param {
    filler {
      value: 1
    }
    bias_term: true
    bias_filler {
      value: 0
    }
  }
}
layer {
  name: "conv13/dw/relu"
  type: "ReLU"
  bottom: "conv13/dw"
  top: "conv13/dw"
}
layer {
  name: "conv13"
  type: "Convolution"
  bottom: "conv13/dw"
  top: "conv13"
  param {
    lr_mult: 0.1
    decay_mult: 0.1
  }
  convolution_param {
    num_output: 1024
    bias_term: false
    kernel_size: 1
    weight_filler {
      type: "msra"
    }
  }
}
layer {
  name: "conv13/bn"
  type: "BatchNorm"
  bottom: "conv13"
  top: "conv13"
}
layer {
  name: "conv13/scale"
  type: "Scale"
  bottom: "conv13"
  top: "conv13"
  param {
    lr_mult: 0.1
    decay_mult: 0
  }
  param {
    lr_mult: 0.2
    decay_mult: 0
  }
  scale_param {
    filler {
      value: 1
    }
    bias_term: true
    bias_filler {
      value: 0
    }
  }
}
layer {
  name: "conv13/relu"
  type: "ReLU"
  bottom: "conv13"
  top: "conv13"
}
layer {
  name: "conv14_1"
  type: "Convolution"
  bottom: "conv13"
  top: "conv14_1"
  param {
    lr_mult: 0.1
    decay_mult: 0.1
  }
  convolution_param {
    num_output: 256
    bias_term: false
    kernel_size: 1
    weight_filler {
      type: "msra"
    }
  }
}
layer {
  name: "conv14_1/bn"
  type: "BatchNorm"
  bottom: "conv14_1"
  top: "conv14_1"
}
layer {
  name: "conv14_1/scale"
  type: "Scale"
  bottom: "conv14_1"
  top: "conv14_1"
  param {
    lr_mult: 0.1
    decay_mult: 0
  }
  param {
    lr_mult: 0.2
    decay_mult: 0
  }
  scale_param {
    filler {
      value: 1
    }
    bias_term: true
    bias_filler {
      value: 0
    }
  }
}
layer {
  name: "conv14_1/relu"
  type: "ReLU"
  bottom: "conv14_1"
  top: "conv14_1"
}
layer {
  name: "conv14_2"
  type: "Convolution"
  bottom: "conv14_1"
  top: "conv14_2"
  param {
    lr_mult: 0.1
    decay_mult: 0.1
  }
  convolution_param {
    num_output: 512
    bias_term: false
    pad: 1
    kernel_size: 3
    stride: 2
    weight_filler {
      type: "msra"
    }
  }
}
layer {
  name: "conv14_2/bn"
  type: "BatchNorm"
  bottom: "conv14_2"
  top: "conv14_2"
}
layer {
  name: "conv14_2/scale"
  type: "Scale"
  bottom: "conv14_2"
  top: "conv14_2"
  param {
    lr_mult: 0.1
    decay_mult: 0
  }
  param {
    lr_mult: 0.2
    decay_mult: 0
  }
  scale_param {
    filler {
      value: 1
    }
    bias_term: true
    bias_filler {
      value: 0
    }
  }
}
layer {
  name: "conv14_2/relu"
  type: "ReLU"
  bottom: "conv14_2"
  top: "conv14_2"
}
layer {
  name: "conv15_1"
  type: "Convolution"
  bottom: "conv14_2"
  top: "conv15_1"
  param {
    lr_mult: 0.1
    decay_mult: 0.1
  }
  convolution_param {
    num_output: 128
    bias_term: false
    kernel_size: 1
    weight_filler {
      type: "msra"
    }
  }
}
layer {
  name: "conv15_1/bn"
  type: "BatchNorm"
  bottom: "conv15_1"
  top: "conv15_1"
}
layer {
  name: "conv15_1/scale"
  type: "Scale"
  bottom: "conv15_1"
  top: "conv15_1"
  param {
    lr_mult: 0.1
    decay_mult: 0
  }
  param {
    lr_mult: 0.2
    decay_mult: 0
  }
  scale_param {
    filler {
      value: 1
    }
    bias_term: true
    bias_filler {
      value: 0
    }
  }
}
layer {
  name: "conv15_1/relu"
  type: "ReLU"
  bottom: "conv15_1"
  top: "conv15_1"
}
layer {
  name: "conv15_2"
  type: "Convolution"
  bottom: "conv15_1"
  top: "conv15_2"
  param {
    lr_mult: 0.1
    decay_mult: 0.1
  }
  convolution_param {
    num_output: 256
    bias_term: false
    pad: 1
    kernel_size: 3
    stride: 2
    weight_filler {
      type: "msra"
    }
  }
}
layer {
  name: "conv15_2/bn"
  type: "BatchNorm"
  bottom: "conv15_2"
  top: "conv15_2"
}
layer {
  name: "conv15_2/scale"
  type: "Scale"
  bottom: "conv15_2"
  top: "conv15_2"
  param {
    lr_mult: 0.1
    decay_mult: 0
  }
  param {
    lr_mult: 0.2
    decay_mult: 0
  }
  scale_param {
    filler {
      value: 1
    }
    bias_term: true
    bias_filler {
      value: 0
    }
  }
}
layer {
  name: "conv15_2/relu"
  type: "ReLU"
  bottom: "conv15_2"
  top: "conv15_2"
}
layer {
  name: "conv16_1"
  type: "Convolution"
  bottom: "conv15_2"
  top: "conv16_1"
  param {
    lr_mult: 0.1
    decay_mult: 0.1
  }
  convolution_param {
    num_output: 128
    bias_term: false
    kernel_size: 1
    weight_filler {
      type: "msra"
    }
  }
}
layer {
  name: "conv16_1/bn"
  type: "BatchNorm"
  bottom: "conv16_1"
  top: "conv16_1"
}
layer {
  name: "conv16_1/scale"
  type: "Scale"
  bottom: "conv16_1"
  top: "conv16_1"
  param {
    lr_mult: 0.1
    decay_mult: 0
  }
  param {
    lr_mult: 0.2
    decay_mult: 0
  }
  scale_param {
    filler {
      value: 1
    }
    bias_term: true
    bias_filler {
      value: 0
    }
  }
}
layer {
  name: "conv16_1/relu"
  type: "ReLU"
  bottom: "conv16_1"
  top: "conv16_1"
}
layer {
  name: "conv16_2"
  type: "Convolution"
  bottom: "conv16_1"
  top: "conv16_2"
  param {
    lr_mult: 0.1
    decay_mult: 0.1
  }
  convolution_param {
    num_output: 256
    bias_term: false
    pad: 1
    kernel_size: 3
    stride: 2
    weight_filler {
      type: "msra"
    }
  }
}
layer {
  name: "conv16_2/bn"
  type: "BatchNorm"
  bottom: "conv16_2"
  top: "conv16_2"
}
layer {
  name: "conv16_2/scale"
  type: "Scale"
  bottom: "conv16_2"
  top: "conv16_2"
  param {
    lr_mult: 0.1
    decay_mult: 0
  }
  param {
    lr_mult: 0.2
    decay_mult: 0
  }
  scale_param {
    filler {
      value: 1
    }
    bias_term: true
    bias_filler {
      value: 0
    }
  }
}
layer {
  name: "conv16_2/relu"
  type: "ReLU"
  bottom: "conv16_2"
  top: "conv16_2"
}
layer {
  name: "conv17_1"
  type: "Convolution"
  bottom: "conv16_2"
  top: "conv17_1"
  param {
    lr_mult: 0.1
    decay_mult: 0.1
  }
  convolution_param {
    num_output: 64
    bias_term: false
    kernel_size: 1
    weight_filler {
      type: "msra"
    }
  }
}
layer {
  name: "conv17_1/bn"
  type: "BatchNorm"
  bottom: "conv17_1"
  top: "conv17_1"
}
layer {
  name: "conv17_1/scale"
  type: "Scale"
  bottom: "conv17_1"
  top: "conv17_1"
  param {
    lr_mult: 0.1
    decay_mult: 0
  }
  param {
    lr_mult: 0.2
    decay_mult: 0
  }
  scale_param {
    filler {
      value: 1
    }
    bias_term: true
    bias_filler {
      value: 0
    }
  }
}
layer {
  name: "conv17_1/relu"
  type: "ReLU"
  bottom: "conv17_1"
  top: "conv17_1"
}
layer {
  name: "conv17_2"
  type: "Convolution"
  bottom: "conv17_1"
  top: "conv17_2"
  param {
    lr_mult: 0.1
    decay_mult: 0.1
  }
  convolution_param {
    num_output: 128
    bias_term: false
    pad: 1
    kernel_size: 3
    stride: 2
    weight_filler {
      type: "msra"
    }
  }
}
layer {
  name: "conv17_2/bn"
  type: "BatchNorm"
  bottom: "conv17_2"
  top: "conv17_2"
}
layer {
  name: "conv17_2/scale"
  type: "Scale"
  bottom: "conv17_2"
  top: "conv17_2"
  param {
    lr_mult: 0.1
    decay_mult: 0
  }
  param {
    lr_mult: 0.2
    decay_mult: 0
  }
  scale_param {
    filler {
      value: 1
    }
    bias_term: true
    bias_filler {
      value: 0
    }
  }
}
layer {
  name: "conv17_2/relu"
  type: "ReLU"
  bottom: "conv17_2"
  top: "conv17_2"
}
layer {
  name: "conv11_mbox_loc"
  type: "Convolution"
  bottom: "conv11"
  top: "conv11_mbox_loc"
  param {
    lr_mult: 0.1
    decay_mult: 0.1
  }
  param {
    lr_mult: 0.2
    decay_mult: 0
  }
  convolution_param {
    num_output: 12
    kernel_size: 1
    weight_filler {
      type: "msra"
    }
    bias_filler {
      type: "constant"
      value: 0
    }
  }
}
layer {
  name: "conv11_mbox_loc_perm"
  type: "Permute"
  bottom: "conv11_mbox_loc"
  top: "conv11_mbox_loc_
I1102 19:05:39.007390  2431 layer_factory.hpp:77] Creating layer data
I1102 19:05:39.007838  2431 net.cpp:100] Creating Layer data
I1102 19:05:39.007848  2431 net.cpp:408] data -> data
I1102 19:05:39.007889  2431 net.cpp:408] data -> label
I1102 19:05:39.075099  2443 db_lmdb.cpp:35] Opened lmdb /home/wu/caffe-ssd/examples/VOC0712/VOC0712_trainval_lmdb
I1102 19:05:39.110919  2431 annotated_data_layer.cpp:62] output data size: 24,3,300,300
I1102 19:05:39.144429  2431 net.cpp:150] Setting up data
I1102 19:05:39.144489  2431 net.cpp:157] Top shape: 24 3 300 300 (6480000)
I1102 19:05:39.144496  2431 net.cpp:157] Top shape: 1 1 14 8 (112)
I1102 19:05:39.144501  2431 net.cpp:165] Memory required for data: 25920448
I1102 19:05:39.144511  2431 layer_factory.hpp:77] Creating layer data_data_0_split
I1102 19:05:39.144542  2431 net.cpp:100] Creating Layer data_data_0_split
I1102 19:05:39.144551  2431 net.cpp:434] data_data_0_split <- data
I1102 19:05:39.144582  2431 net.cpp:408] data_data_0_split -> data_data_0_split_0
I1102 19:05:39.144606  2431 net.cpp:408] data_data_0_split -> data_data_0_split_1
I1102 19:05:39.144613  2431 net.cpp:408] data_data_0_split -> data_data_0_split_2
I1102 19:05:39.144634  2431 net.cpp:408] data_data_0_split -> data_data_0_split_3
I1102 19:05:39.144639  2431 net.cpp:408] data_data_0_split -> data_data_0_split_4
I1102 19:05:39.144644  2431 net.cpp:408] data_data_0_split -> data_data_0_split_5
I1102 19:05:39.144649  2431 net.cpp:408] data_data_0_split -> data_data_0_split_6
I1102 19:05:39.144765  2431 net.cpp:150] Setting up data_data_0_split
I1102 19:05:39.144771  2431 net.cpp:157] Top shape: 24 3 300 300 (6480000)
I1102 19:05:39.144816  2431 net.cpp:157] Top shape: 24 3 300 300 (6480000)
I1102 19:05:39.144821  2431 net.cpp:157] Top shape: 24 3 300 300 (6480000)
I1102 19:05:39.144824  2431 net.cpp:157] Top shape: 24 3 300 300 (6480000)
I1102 19:05:39.144829  2431 net.cpp:157] Top shape: 24 3 300 300 (6480000)
I1102 19:05:39.144845  2431 net.cpp:157] Top shape: 24 3 300 300 (6480000)
I1102 19:05:39.144848  2431 net.cpp:157] Top shape: 24 3 300 300 (6480000)
I1102 19:05:39.144851  2431 net.cpp:165] Memory required for data: 207360448
I1102 19:05:39.144855  2431 layer_factory.hpp:77] Creating layer conv0
I1102 19:05:39.144870  2431 net.cpp:100] Creating Layer conv0
I1102 19:05:39.144876  2431 net.cpp:434] conv0 <- data_data_0_split_0
I1102 19:05:39.144882  2431 net.cpp:408] conv0 -> conv0
I1102 19:05:39.480499  2431 net.cpp:150] Setting up conv0
I1102 19:05:39.480523  2431 net.cpp:157] Top shape: 24 32 150 150 (17280000)
I1102 19:05:39.480526  2431 net.cpp:165] Memory required for data: 276480448
I1102 19:05:39.480552  2431 layer_factory.hpp:77] Creating layer conv0/bn
I1102 19:05:39.480562  2431 net.cpp:100] Creating Layer conv0/bn
I1102 19:05:39.480567  2431 net.cpp:434] conv0/bn <- conv0
I1102 19:05:39.480585  2431 net.cpp:395] conv0/bn -> conv0 (in-place)
I1102 19:05:39.481446  2431 net.cpp:150] Setting up conv0/bn
I1102 19:05:39.481457  2431 net.cpp:157] Top shape: 24 32 150 150 (17280000)
I1102 19:05:39.481461  2431 net.cpp:165] Memory required for data: 345600448
I1102 19:05:39.481483  2431 layer_factory.hpp:77] Creating layer conv0/scale
I1102 19:05:39.481494  2431 net.cpp:100] Creating Layer conv0/scale
I1102 19:05:39.481498  2431 net.cpp:434] conv0/scale <- conv0
I1102 19:05:39.481503  2431 net.cpp:395] conv0/scale -> conv0 (in-place)
I1102 19:05:39.481551  2431 layer_factory.hpp:77] Creating layer conv0/scale
I1102 19:05:39.481685  2431 net.cpp:150] Setting up conv0/scale
I1102 19:05:39.481691  2431 net.cpp:157] Top shape: 24 32 150 150 (17280000)
I1102 19:05:39.481694  2431 net.cpp:165] Memory required for data: 414720448
I1102 19:05:39.481700  2431 layer_factory.hpp:77] Creating layer conv0/relu
I1102 19:05:39.481719  2431 net.cpp:100] Creating Layer conv0/relu
I1102 19:05:39.481722  2431 net.cpp:434] conv0/relu <- conv0
I1102 19:05:39.481727  2431 net.cpp:395] conv0/relu -> conv0 (in-place)
I1102 19:05:39.481902  2431 net.cpp:150] Setting up conv0/relu
I1102 19:05:39.481909  2431 net.cpp:157] Top shape: 24 32 150 150 (17280000)
I1102 19:05:39.481912  2431 net.cpp:165] Memory required for data: 483840448
I1102 19:05:39.481915  2431 layer_factory.hpp:77] Creating layer conv1/dw
I1102 19:05:39.481922  2431 net.cpp:100] Creating Layer conv1/dw
I1102 19:05:39.481940  2431 net.cpp:434] conv1/dw <- conv0
I1102 19:05:39.481945  2431 net.cpp:408] conv1/dw -> conv1/dw
I1102 19:05:39.482118  2431 net.cpp:150] Setting up conv1/dw
I1102 19:05:39.482125  2431 net.cpp:157] Top shape: 24 32 150 150 (17280000)
I1102 19:05:39.482127  2431 net.cpp:165] Memory required for data: 552960448
I1102 19:05:39.482131  2431 layer_factory.hpp:77] Creating layer conv1/dw/bn
I1102 19:05:39.482136  2431 net.cpp:100] Creating Layer conv1/dw/bn
I1102 19:05:39.482152  2431 net.cpp:434] conv1/dw/bn <- conv1/dw
I1102 19:05:39.482156  2431 net.cpp:395] conv1/dw/bn -> conv1/dw (in-place)
I1102 19:05:39.482331  2431 net.cpp:150] Setting up conv1/dw/bn
I1102 19:05:39.482336  2431 net.cpp:157] Top shape: 24 32 150 150 (17280000)
I1102 19:05:39.482339  2431 net.cpp:165] Memory required for data: 622080448
I1102 19:05:39.482345  2431 layer_factory.hpp:77] Creating layer conv1/dw/scale
I1102 19:05:39.482367  2431 net.cpp:100] Creating Layer conv1/dw/scale
I1102 19:05:39.482369  2431 net.cpp:434] conv1/dw/scale <- conv1/dw
I1102 19:05:39.482373  2431 net.cpp:395] conv1/dw/scale -> conv1/dw (in-place)
I1102 19:05:39.482425  2431 layer_factory.hpp:77] Creating layer conv1/dw/scale
I1102 19:05:39.482580  2431 net.cpp:150] Setting up conv1/dw/scale
I1102 19:05:39.482586  2431 net.cpp:157] Top shape: 24 32 150 150 (17280000)
I1102 19:05:39.482589  2431 net.cpp:165] Memory required for data: 691200448
I1102 19:05:39.482605  2431 layer_factory.hpp:77] Creating layer conv1/dw/relu
I1102 19:05:39.482609  2431 net.cpp:100] Creating Layer conv1/dw/relu
I1102 19:05:39.482612  2431 net.cpp:434] conv1/dw/relu <- conv1/dw
I1102 19:05:39.482616  2431 net.cpp:395] conv1/dw/relu -> conv1/dw (in-place)
I1102 19:05:39.482811  2431 net.cpp:150] Setting up conv1/dw/relu
I1102 19:05:39.482817  2431 net.cpp:157] Top shape: 24 32 150 150 (17280000)
I1102 19:05:39.482820  2431 net.cpp:165] Memory required for data: 760320448
I1102 19:05:39.482825  2431 layer_factory.hpp:77] Creating layer conv1
I1102 19:05:39.482844  2431 net.cpp:100] Creating Layer conv1
I1102 19:05:39.482847  2431 net.cpp:434] conv1 <- conv1/dw
I1102 19:05:39.482852  2431 net.cpp:408] conv1 -> conv1
I1102 19:05:39.488893  2431 net.cpp:150] Setting up conv1
I1102 19:05:39.488909  2431 net.cpp:157] Top shape: 24 64 150 150 (34560000)
I1102 19:05:39.488912  2431 net.cpp:165] Memory required for data: 898560448
I1102 19:05:39.488919  2431 layer_factory.hpp:77] Creating layer conv1/bn
I1102 19:05:39.488940  2431 net.cpp:100] Creating Layer conv1/bn
I1102 19:05:39.488943  2431 net.cpp:434] conv1/bn <- conv1
I1102 19:05:39.488948  2431 net.cpp:395] conv1/bn -> conv1 (in-place)
I1102 19:05:39.489106  2431 net.cpp:150] Setting up conv1/bn
I1102 19:05:39.489111  2431 net.cpp:157] Top shape: 24 64 150 150 (34560000)
I1102 19:05:39.489114  2431 net.cpp:165] Memory required for data: 1036800448
I1102 19:05:39.489120  2431 layer_factory.hpp:77] Creating layer conv1/scale
I1102 19:05:39.489141  2431 net.cpp:100] Creating Layer conv1/scale
I1102 19:05:39.489145  2431 net.cpp:434] conv1/scale <- conv1
I1102 19:05:39.489148  2431 net.cpp:395] conv1/scale -> conv1 (in-place)
I1102 19:05:39.489187  2431 layer_factory.hpp:77] Creating layer conv1/scale
I1102 19:05:39.489318  2431 net.cpp:150] Setting up conv1/scale
I1102 19:05:39.489328  2431 net.cpp:157] Top shape: 24 64 150 150 (34560000)
I1102 19:05:39.489332  2431 net.cpp:165] Memory required for data: 1175040448
I1102 19:05:39.489358  2431 layer_factory.hpp:77] Creating layer conv1/relu
I1102 19:05:39.489379  2431 net.cpp:100] Creating Layer conv1/relu
I1102 19:05:39.489384  2431 net.cpp:434] conv1/relu <- conv1
I1102 19:05:39.489405  2431 net.cpp:395] conv1/relu -> conv1 (in-place)
I1102 19:05:39.489564  2431 net.cpp:150] Setting up conv1/relu
I1102 19:05:39.489583  2431 net.cpp:157] Top shape: 24 64 150 150 (34560000)
I1102 19:05:39.489586  2431 net.cpp:165] Memory required for data: 1313280448
I1102 19:05:39.489589  2431 layer_factory.hpp:77] Creating layer conv2/dw
I1102 19:05:39.489598  2431 net.cpp:100] Creating Layer conv2/dw
I1102 19:05:39.489614  2431 net.cpp:434] conv2/dw <- conv1
I1102 19:05:39.489619  2431 net.cpp:408] conv2/dw -> conv2/dw
I1102 19:05:39.489761  2431 net.cpp:150] Setting up conv2/dw
I1102 19:05:39.489766  2431 net.cpp:157] Top shape: 24 64 75 75 (8640000)
I1102 19:05:39.489769  2431 net.cpp:165] Memory required for data: 1347840448
I1102 19:05:39.489773  2431 layer_factory.hpp:77] Creating layer conv2/dw/bn
I1102 19:05:39.489778  2431 net.cpp:100] Creating Layer conv2/dw/bn
I1102 19:05:39.489795  2431 net.cpp:434] conv2/dw/bn <- conv2/dw
I1102 19:05:39.489799  2431 net.cpp:395] conv2/dw/bn -> conv2/dw (in-place)
I1102 19:05:39.490584  2431 net.cpp:150] Setting up conv2/dw/bn
I1102 19:05:39.490593  2431 net.cpp:157] Top shape: 24 64 75 75 (8640000)
I1102 19:05:39.490597  2431 net.cpp:165] Memory required for data: 1382400448
I1102 19:05:39.490603  2431 layer_factory.hpp:77] Creating layer conv2/dw/scale
I1102 19:05:39.490624  2431 net.cpp:100] Creating Layer conv2/dw/scale
I1102 19:05:39.490628  2431 net.cpp:434] conv2/dw/scale <- conv2/dw
I1102 19:05:39.490633  2431 net.cpp:395] conv2/dw/scale -> conv2/dw (in-place)
I1102 19:05:39.490670  2431 layer_factory.hpp:77] Creating layer conv2/dw/scale
I1102 19:05:39.490799  2431 net.cpp:150] Setting up conv2/dw/scale
I1102 19:05:39.490806  2431 net.cpp:157] Top shape: 24 64 75 75 (8640000)
I1102 19:05:39.490809  2431 net.cpp:165] Memory required for data: 1416960448
I1102 19:05:39.490839  2431 layer_factory.hpp:77] Creating layer conv2/dw/relu
I1102 19:05:39.490844  2431 net.cpp:100] Creating Layer conv2/dw/relu
I1102 19:05:39.490847  2431 net.cpp:434] conv2/dw/relu <- conv2/dw
I1102 19:05:39.490852  2431 net.cpp:395] conv2/dw/relu -> conv2/dw (in-place)
I1102 19:05:39.491339  2431 net.cpp:150] Setting up conv2/dw/relu
I1102 19:05:39.491348  2431 net.cpp:157] Top shape: 24 64 75 75 (8640000)
I1102 19:05:39.491353  2431 net.cpp:165] Memory required for data: 1451520448
I1102 19:05:39.491355  2431 layer_factory.hpp:77] Creating layer conv2
I1102 19:05:39.491377  2431 net.cpp:100] Creating Layer conv2
I1102 19:05:39.491380  2431 net.cpp:434] conv2 <- conv2/dw
I1102 19:05:39.491385  2431 net.cpp:408] conv2 -> conv2
I1102 19:05:39.496966  2431 net.cpp:150] Setting up conv2
I1102 19:05:39.496986  2431 net.cpp:157] Top shape: 24 128 75 75 (17280000)
I1102 19:05:39.496991  2431 net.cpp:165] Memory required for data: 1520640448
I1102 19:05:39.497012  2431 layer_factory.hpp:77] Creating layer conv2/bn
I1102 19:05:39.497035  2431 net.cpp:100] Creating Layer conv2/bn
I1102 19:05:39.497040  2431 net.cpp:434] conv2/bn <- conv2
I1102 19:05:39.497045  2431 net.cpp:395] conv2/bn -> conv2 (in-place)
I1102 19:05:39.497215  2431 net.cpp:150] Setting up conv2/bn
I1102 19:05:39.497221  2431 net.cpp:157] Top shape: 24 128 75 75 (17280000)
I1102 19:05:39.497225  2431 net.cpp:165] Memory required for data: 1589760448
I1102 19:05:39.497231  2431 layer_factory.hpp:77] Creating layer conv2/scale
I1102 19:05:39.497251  2431 net.cpp:100] Creating Layer conv2/scale
I1102 19:05:39.497254  2431 net.cpp:434] conv2/scale <- conv2
I1102 19:05:39.497258  2431 net.cpp:395] conv2/scale -> conv2 (in-place)
I1102 19:05:39.497314  2431 layer_factory.hpp:77] Creating layer conv2/scale
I1102 19:05:39.497404  2431 net.cpp:150] Setting up conv2/scale
I1102 19:05:39.497423  2431 net.cpp:157] Top shape: 24 128 75 75 (17280000)
I1102 19:05:39.497426  2431 net.cpp:165] Memory required for data: 1658880448
I1102 19:05:39.497431  2431 layer_factory.hpp:77] Creating layer conv2/relu
I1102 19:05:39.497450  2431 net.cpp:100] Creating Layer conv2/relu
I1102 19:05:39.497453  2431 net.cpp:434] conv2/relu <- conv2
I1102 19:05:39.497470  2431 net.cpp:395] conv2/relu -> conv2 (in-place)
I1102 19:05:39.497632  2431 net.cpp:150] Setting up conv2/relu
I1102 19:05:39.497639  2431 net.cpp:157] Top shape: 24 128 75 75 (17280000)
I1102 19:05:39.497642  2431 net.cpp:165] Memory required for data: 1728000448
I1102 19:05:39.497645  2431 layer_factory.hpp:77] Creating layer conv3/dw
I1102 19:05:39.497668  2431 net.cpp:100] Creating Layer conv3/dw
I1102 19:05:39.497671  2431 net.cpp:434] conv3/dw <- conv2
I1102 19:05:39.497689  2431 net.cpp:408] conv3/dw -> conv3/dw
I1102 19:05:39.497870  2431 net.cpp:150] Setting up conv3/dw
I1102 19:05:39.497876  2431 net.cpp:157] Top shape: 24 128 75 75 (17280000)
I1102 19:05:39.497879  2431 net.cpp:165] Memory required for data: 1797120448
I1102 19:05:39.497884  2431 layer_factory.hpp:77] Creating layer conv3/dw/bn
I1102 19:05:39.497887  2431 net.cpp:100] Creating Layer conv3/dw/bn
I1102 19:05:39.497905  2431 net.cpp:434] conv3/dw/bn <- conv3/dw
I1102 19:05:39.497908  2431 net.cpp:395] conv3/dw/bn -> conv3/dw (in-place)
I1102 19:05:39.498075  2431 net.cpp:150] Setting up conv3/dw/bn
I1102 19:05:39.498080  2431 net.cpp:157] Top shape: 24 128 75 75 (17280000)
I1102 19:05:39.498083  2431 net.cpp:165] Memory required for data: 1866240448
I1102 19:05:39.498092  2431 layer_factory.hpp:77] Creating layer conv3/dw/scale
I1102 19:05:39.498113  2431 net.cpp:100] Creating Layer conv3/dw/scale
I1102 19:05:39.498116  2431 net.cpp:434] conv3/dw/scale <- conv3/dw
I1102 19:05:39.498121  2431 net.cpp:395] conv3/dw/scale -> conv3/dw (in-place)
I1102 19:05:39.498173  2431 layer_factory.hpp:77] Creating layer conv3/dw/scale
I1102 19:05:39.498260  2431 net.cpp:150] Setting up conv3/dw/scale
I1102 19:05:39.498265  2431 net.cpp:157] Top shape: 24 128 75 75 (17280000)
I1102 19:05:39.498268  2431 net.cpp:165] Memory required for data: 1935360448
I1102 19:05:39.498311  2431 layer_factory.hpp:77] Creating layer conv3/dw/relu
I1102 19:05:39.498314  2431 net.cpp:100] Creating Layer conv3/dw/relu
I1102 19:05:39.498330  2431 net.cpp:434] conv3/dw/relu <- conv3/dw
I1102 19:05:39.498334  2431 net.cpp:395] conv3/dw/relu -> conv3/dw (in-place)
I1102 19:05:39.498492  2431 net.cpp:150] Setting up conv3/dw/relu
I1102 19:05:39.498498  2431 net.cpp:157] Top shape: 24 128 75 75 (17280000)
I1102 19:05:39.498502  2431 net.cpp:165] Memory required for data: 2004480448
I1102 19:05:39.498504  2431 layer_factory.hpp:77] Creating layer conv3
I1102 19:05:39.498510  2431 net.cpp:100] Creating Layer conv3
I1102 19:05:39.498528  2431 net.cpp:434] conv3 <- conv3/dw
I1102 19:05:39.498533  2431 net.cpp:408] conv3 -> conv3
I1102 19:05:39.504295  2431 net.cpp:150] Setting up conv3
I1102 19:05:39.504323  2431 net.cpp:157] Top shape: 24 128 75 75 (17280000)
I1102 19:05:39.504345  2431 net.cpp:165] Memory required for data: 2073600448
I1102 19:05:39.504356  2431 layer_factory.hpp:77] Creating layer conv3/bn
I1102 19:05:39.504370  2431 net.cpp:100] Creating Layer conv3/bn
I1102 19:05:39.504377  2431 net.cpp:434] conv3/bn <- conv3
I1102 19:05:39.504400  2431 net.cpp:395] conv3/bn -> conv3 (in-place)
I1102 19:05:39.504623  2431 net.cpp:150] Setting up conv3/bn
I1102 19:05:39.504632  2431 net.cpp:157] Top shape: 24 128 75 75 (17280000)
I1102 19:05:39.504652  2431 net.cpp:165] Memory required for data: 2142720448
I1102 19:05:39.504675  2431 layer_factory.hpp:77] Creating layer conv3/scale
I1102 19:05:39.504699  2431 net.cpp:100] Creating Layer conv3/scale
I1102 19:05:39.504704  2431 net.cpp:434] conv3/scale <- conv3
I1102 19:05:39.504712  2431 net.cpp:395] conv3/scale -> conv3 (in-place)
I1102 19:05:39.504779  2431 layer_factory.hpp:77] Creating layer conv3/scale
I1102 19:05:39.504943  2431 net.cpp:150] Setting up conv3/scale
I1102 19:05:39.504966  2431 net.cpp:157] Top shape: 24 128 75 75 (17280000)
I1102 19:05:39.504971  2431 net.cpp:165] Memory required for data: 2211840448
I1102 19:05:39.504976  2431 layer_factory.hpp:77] Creating layer conv3/relu
I1102 19:05:39.504998  2431 net.cpp:100] Creating Layer conv3/relu
I1102 19:05:39.505003  2431 net.cpp:434] conv3/relu <- conv3
I1102 19:05:39.505009  2431 net.cpp:395] conv3/relu -> conv3 (in-place)
I1102 19:05:39.505214  2431 net.cpp:150] Setting up conv3/relu
I1102 19:05:39.505224  2431 net.cpp:157] Top shape: 24 128 75 75 (17280000)
I1102 19:05:39.505228  2431 net.cpp:165] Memory required for data: 2280960448
I1102 19:05:39.505234  2431 layer_factory.hpp:77] Creating layer conv4/dw
I1102 19:05:39.505259  2431 net.cpp:100] Creating Layer conv4/dw
I1102 19:05:39.505262  2431 net.cpp:434] conv4/dw <- conv3
I1102 19:05:39.505270  2431 net.cpp:408] conv4/dw -> conv4/dw
I1102 19:05:39.505537  2431 net.cpp:150] Setting up conv4/dw
I1102 19:05:39.505547  2431 net.cpp:157] Top shape: 24 128 38 38 (4435968)
I1102 19:05:39.505551  2431 net.cpp:165] Memory required for data: 2298704320
I1102 19:05:39.505573  2431 layer_factory.hpp:77] Creating layer conv4/dw/bn
I1102 19:05:39.505580  2431 net.cpp:100] Creating Layer conv4/dw/bn
I1102 19:05:39.505585  2431 net.cpp:434] conv4/dw/bn <- conv4/dw
I1102 19:05:39.505604  2431 net.cpp:395] conv4/dw/bn -> conv4/dw (in-place)
I1102 19:05:39.505792  2431 net.cpp:150] Setting up conv4/dw/bn
I1102 19:05:39.505801  2431 net.cpp:157] Top shape: 24 128 38 38 (4435968)
I1102 19:05:39.505806  2431 net.cpp:165] Memory required for data: 2316448192
I1102 19:05:39.505815  2431 layer_factory.hpp:77] Creating layer conv4/dw/scale
I1102 19:05:39.505841  2431 net.cpp:100] Creating Layer conv4/dw/scale
I1102 19:05:39.505844  2431 net.cpp:434] conv4/dw/scale <- conv4/dw
I1102 19:05:39.505851  2431 net.cpp:395] conv4/dw/scale -> conv4/dw (in-place)
I1102 19:05:39.505903  2431 layer_factory.hpp:77] Creating layer conv4/dw/scale
I1102 19:05:39.506031  2431 net.cpp:150] Setting up conv4/dw/scale
I1102 19:05:39.506041  2431 net.cpp:157] Top shape: 24 128 38 38 (4435968)
I1102 19:05:39.506047  2431 net.cpp:165] Memory required for data: 2334192064
I1102 19:05:39.506083  2431 layer_factory.hpp:77] Creating layer conv4/dw/relu
I1102 19:05:39.506090  2431 net.cpp:100] Creating Layer conv4/dw/relu
I1102 19:05:39.506095  2431 net.cpp:434] conv4/dw/relu <- conv4/dw
I1102 19:05:39.506101  2431 net.cpp:395] conv4/dw/relu -> conv4/dw (in-place)
I1102 19:05:39.506279  2431 net.cpp:150] Setting up conv4/dw/relu
I1102 19:05:39.506289  2431 net.cpp:157] Top shape: 24 128 38 38 (4435968)
I1102 19:05:39.506294  2431 net.cpp:165] Memory required for data: 2351935936
I1102 19:05:39.506297  2431 layer_factory.hpp:77] Creating layer conv4
I1102 19:05:39.506320  2431 net.cpp:100] Creating Layer conv4
I1102 19:05:39.506325  2431 net.cpp:434] conv4 <- conv4/dw
I1102 19:05:39.506332  2431 net.cpp:408] conv4 -> conv4
I1102 19:05:39.508620  2431 net.cpp:150] Setting up conv4
I1102 19:05:39.508632  2431 net.cpp:157] Top shape: 24 256 38 38 (8871936)
I1102 19:05:39.508636  2431 net.cpp:165] Memory required for data: 2387423680
I1102 19:05:39.508641  2431 layer_factory.hpp:77] Creating layer conv4/bn
I1102 19:05:39.508662  2431 net.cpp:100] Creating Layer conv4/bn
I1102 19:05:39.508666  2431 net.cpp:434] conv4/bn <- conv4
I1102 19:05:39.508671  2431 net.cpp:395] conv4/bn -> conv4 (in-place)
I1102 19:05:39.508831  2431 net.cpp:150] Setting up conv4/bn
I1102 19:05:39.508836  2431 net.cpp:157] Top shape: 24 256 38 38 (8871936)
I1102 19:05:39.508839  2431 net.cpp:165] Memory required for data: 2422911424
I1102 19:05:39.508846  2431 layer_factory.hpp:77] Creating layer conv4/scale
I1102 19:05:39.508867  2431 net.cpp:100] Creating Layer conv4/scale
I1102 19:05:39.508869  2431 net.cpp:434] conv4/scale <- conv4
I1102 19:05:39.508873  2431 net.cpp:395] conv4/scale -> conv4 (in-place)
I1102 19:05:39.508913  2431 layer_factory.hpp:77] Creating layer conv4/scale
I1102 19:05:39.509008  2431 net.cpp:150] Setting up conv4/scale
I1102 19:05:39.509014  2431 net.cpp:157] Top shape: 24 256 38 38 (8871936)
I1102 19:05:39.509017  2431 net.cpp:165] Memory required for data: 2458399168
I1102 19:05:39.509021  2431 layer_factory.hpp:77] Creating layer conv4/relu
I1102 19:05:39.509027  2431 net.cpp:100] Creating Layer conv4/relu
I1102 19:05:39.509043  2431 net.cpp:434] conv4/relu <- conv4
I1102 19:05:39.509047  2431 net.cpp:395] conv4/relu -> conv4 (in-place)
I1102 19:05:39.509529  2431 net.cpp:150] Setting up conv4/relu
I1102 19:05:39.509539  2431 net.cpp:157] Top shape: 24 256 38 38 (8871936)
I1102 19:05:39.509542  2431 net.cpp:165] Memory required for data: 2493886912
I1102 19:05:39.509558  2431 layer_factory.hpp:77] Creating layer conv5/dw
I1102 19:05:39.509565  2431 net.cpp:100] Creating Layer conv5/dw
I1102 19:05:39.509569  2431 net.cpp:434] conv5/dw <- conv4
I1102 19:05:39.509574  2431 net.cpp:408] conv5/dw -> conv5/dw
I1102 19:05:39.509759  2431 net.cpp:150] Setting up conv5/dw
I1102 19:05:39.509766  2431 net.cpp:157] Top shape: 24 256 38 38 (8871936)
I1102 19:05:39.509769  2431 net.cpp:165] Memory required for data: 2529374656
I1102 19:05:39.509773  2431 layer_factory.hpp:77] Creating layer conv5/dw/bn
I1102 19:05:39.509778  2431 net.cpp:100] Creating Layer conv5/dw/bn
I1102 19:05:39.509783  2431 net.cpp:434] conv5/dw/bn <- conv5/dw
I1102 19:05:39.509786  2431 net.cpp:395] conv5/dw/bn -> conv5/dw (in-place)
I1102 19:05:39.509925  2431 net.cpp:150] Setting up conv5/dw/bn
I1102 19:05:39.509932  2431 net.cpp:157] Top shape: 24 256 38 38 (8871936)
I1102 19:05:39.509934  2431 net.cpp:165] Memory required for data: 2564862400
I1102 19:05:39.509940  2431 layer_factory.hpp:77] Creating layer conv5/dw/scale
I1102 19:05:39.509945  2431 net.cpp:100] Creating Layer conv5/dw/scale
I1102 19:05:39.509948  2431 net.cpp:434] conv5/dw/scale <- conv5/dw
I1102 19:05:39.509965  2431 net.cpp:395] conv5/dw/scale -> conv5/dw (in-place)
I1102 19:05:39.509991  2431 layer_factory.hpp:77] Creating layer conv5/dw/scale
I1102 19:05:39.510061  2431 net.cpp:150] Setting up conv5/dw/scale
I1102 19:05:39.510080  2431 net.cpp:157] Top shape: 24 256 38 38 (8871936)
I1102 19:05:39.510083  2431 net.cpp:165] Memory required for data: 2600350144
I1102 19:05:39.510097  2431 layer_factory.hpp:77] Creating layer conv5/dw/relu
I1102 19:05:39.510102  2431 net.cpp:100] Creating Layer conv5/dw/relu
I1102 19:05:39.510104  2431 net.cpp:434] conv5/dw/relu <- conv5/dw
I1102 19:05:39.510108  2431 net.cpp:395] conv5/dw/relu -> conv5/dw (in-place)
I1102 19:05:39.510220  2431 net.cpp:150] Setting up conv5/dw/relu
I1102 19:05:39.510226  2431 net.cpp:157] Top shape: 24 256 38 38 (8871936)
I1102 19:05:39.510229  2431 net.cpp:165] Memory required for data: 2635837888
I1102 19:05:39.510232  2431 layer_factory.hpp:77] Creating layer conv5
I1102 19:05:39.510238  2431 net.cpp:100] Creating Layer conv5
I1102 19:05:39.510242  2431 net.cpp:434] conv5 <- conv5/dw
I1102 19:05:39.510247  2431 net.cpp:408] conv5 -> conv5
I1102 19:05:39.516358  2431 net.cpp:150] Setting up conv5
I1102 19:05:39.516377  2431 net.cpp:157] Top shape: 24 256 38 38 (8871936)
I1102 19:05:39.516382  2431 net.cpp:165] Memory required for data: 2671325632
I1102 19:05:39.516388  2431 layer_factory.hpp:77] Creating layer conv5/bn
I1102 19:05:39.516396  2431 net.cpp:100] Creating Layer conv5/bn
I1102 19:05:39.516400  2431 net.cpp:434] conv5/bn <- conv5
I1102 19:05:39.516405  2431 net.cpp:395] conv5/bn -> conv5 (in-place)
I1102 19:05:39.516572  2431 net.cpp:150] Setting up conv5/bn
I1102 19:05:39.516578  2431 net.cpp:157] Top shape: 24 256 38 38 (8871936)
I1102 19:05:39.516582  2431 net.cpp:165] Memory required for data: 2706813376
I1102 19:05:39.516587  2431 layer_factory.hpp:77] Creating layer conv5/scale
I1102 19:05:39.516607  2431 net.cpp:100] Creating Layer conv5/scale
I1102 19:05:39.516611  2431 net.cpp:434] conv5/scale <- conv5
I1102 19:05:39.516616  2431 net.cpp:395] conv5/scale -> conv5 (in-place)
I1102 19:05:39.516657  2431 layer_factory.hpp:77] Creating layer conv5/scale
I1102 19:05:39.516753  2431 net.cpp:150] Setting up conv5/scale
I1102 19:05:39.516759  2431 net.cpp:157] Top shape: 24 256 38 38 (8871936)
I1102 19:05:39.516762  2431 net.cpp:165] Memory required for data: 2742301120
I1102 19:05:39.516788  2431 layer_factory.hpp:77] Creating layer conv5/relu
I1102 19:05:39.516794  2431 net.cpp:100] Creating Layer conv5/relu
I1102 19:05:39.516810  2431 net.cpp:434] conv5/relu <- conv5
I1102 19:05:39.516814  2431 net.cpp:395] conv5/relu -> conv5 (in-place)
I1102 19:05:39.516961  2431 net.cpp:150] Setting up conv5/relu
I1102 19:05:39.516968  2431 net.cpp:157] Top shape: 24 256 38 38 (8871936)
I1102 19:05:39.516971  2431 net.cpp:165] Memory required for data: 2777788864
I1102 19:05:39.516974  2431 layer_factory.hpp:77] Creating layer conv6/dw
I1102 19:05:39.516996  2431 net.cpp:100] Creating Layer conv6/dw
I1102 19:05:39.516999  2431 net.cpp:434] conv6/dw <- conv5
I1102 19:05:39.517017  2431 net.cpp:408] conv6/dw -> conv6/dw
I1102 19:05:39.517212  2431 net.cpp:150] Setting up conv6/dw
I1102 19:05:39.517218  2431 net.cpp:157] Top shape: 24 256 19 19 (2217984)
I1102 19:05:39.517221  2431 net.cpp:165] Memory required for data: 2786660800
I1102 19:05:39.517225  2431 layer_factory.hpp:77] Creating layer conv6/dw/bn
I1102 19:05:39.517230  2431 net.cpp:100] Creating Layer conv6/dw/bn
I1102 19:05:39.517247  2431 net.cpp:434] conv6/dw/bn <- conv6/dw
I1102 19:05:39.517251  2431 net.cpp:395] conv6/dw/bn -> conv6/dw (in-place)
I1102 19:05:39.517406  2431 net.cpp:150] Setting up conv6/dw/bn
I1102 19:05:39.517412  2431 net.cpp:157] Top shape: 24 256 19 19 (2217984)
I1102 19:05:39.517416  2431 net.cpp:165] Memory required for data: 2795532736
I1102 19:05:39.517421  2431 layer_factory.hpp:77] Creating layer conv6/dw/scale
I1102 19:05:39.517426  2431 net.cpp:100] Creating Layer conv6/dw/scale
I1102 19:05:39.517442  2431 net.cpp:434] conv6/dw/scale <- conv6/dw
I1102 19:05:39.517446  2431 net.cpp:395] conv6/dw/scale -> conv6/dw (in-place)
I1102 19:05:39.517484  2431 layer_factory.hpp:77] Creating layer conv6/dw/scale
I1102 19:05:39.517580  2431 net.cpp:150] Setting up conv6/dw/scale
I1102 19:05:39.517585  2431 net.cpp:157] Top shape: 24 256 19 19 (2217984)
I1102 19:05:39.517587  2431 net.cpp:165] Memory required for data: 2804404672
I1102 19:05:39.517617  2431 layer_factory.hpp:77] Creating layer conv6/dw/relu
I1102 19:05:39.517635  2431 net.cpp:100] Creating Layer conv6/dw/relu
I1102 19:05:39.517639  2431 net.cpp:434] conv6/dw/relu <- conv6/dw
I1102 19:05:39.517643  2431 net.cpp:395] conv6/dw/relu -> conv6/dw (in-place)
I1102 19:05:39.517781  2431 net.cpp:150] Setting up conv6/dw/relu
I1102 19:05:39.517786  2431 net.cpp:157] Top shape: 24 256 19 19 (2217984)
I1102 19:05:39.517789  2431 net.cpp:165] Memory required for data: 2813276608
I1102 19:05:39.517792  2431 layer_factory.hpp:77] Creating layer conv6
I1102 19:05:39.517799  2431 net.cpp:100] Creating Layer conv6
I1102 19:05:39.517817  2431 net.cpp:434] conv6 <- conv6/dw
I1102 19:05:39.517822  2431 net.cpp:408] conv6 -> conv6
I1102 19:05:39.533252  2431 net.cpp:150] Setting up conv6
I1102 19:05:39.533270  2431 net.cpp:157] Top shape: 24 512 19 19 (4435968)
I1102 19:05:39.533274  2431 net.cpp:165] Memory required for data: 2831020480
I1102 19:05:39.533282  2431 layer_factory.hpp:77] Creating layer conv6/bn
I1102 19:05:39.533289  2431 net.cpp:100] Creating Layer conv6/bn
I1102 19:05:39.533294  2431 net.cpp:434] conv6/bn <- conv6
I1102 19:05:39.533301  2431 net.cpp:395] conv6/bn -> conv6 (in-place)
I1102 19:05:39.533463  2431 net.cpp:150] Setting up conv6/bn
I1102 19:05:39.533468  2431 net.cpp:157] Top shape: 24 512 19 19 (4435968)
I1102 19:05:39.533471  2431 net.cpp:165] Memory required for data: 2848764352
I1102 19:05:39.533478  2431 layer_factory.hpp:77] Creating layer conv6/scale
I1102 19:05:39.533483  2431 net.cpp:100] Creating Layer conv6/scale
I1102 19:05:39.533488  2431 net.cpp:434] conv6/scale <- conv6
I1102 19:05:39.533490  2431 net.cpp:395] conv6/scale -> conv6 (in-place)
I1102 19:05:39.533519  2431 layer_factory.hpp:77] Creating layer conv6/scale
I1102 19:05:39.533587  2431 net.cpp:150] Setting up conv6/scale
I1102 19:05:39.533592  2431 net.cpp:157] Top shape: 24 512 19 19 (4435968)
I1102 19:05:39.533596  2431 net.cpp:165] Memory required for data: 2866508224
I1102 19:05:39.533601  2431 layer_factory.hpp:77] Creating layer conv6/relu
I1102 19:05:39.533605  2431 net.cpp:100] Creating Layer conv6/relu
I1102 19:05:39.533608  2431 net.cpp:434] conv6/relu <- conv6
I1102 19:05:39.533612  2431 net.cpp:395] conv6/relu -> conv6 (in-place)
I1102 19:05:39.534027  2431 net.cpp:150] Setting up conv6/relu
I1102 19:05:39.534036  2431 net.cpp:157] Top shape: 24 512 19 19 (4435968)
I1102 19:05:39.534039  2431 net.cpp:165] Memory required for data: 2884252096
I1102 19:05:39.534044  2431 layer_factory.hpp:77] Creating layer conv7/dw
I1102 19:05:39.534050  2431 net.cpp:100] Creating Layer conv7/dw
I1102 19:05:39.534054  2431 net.cpp:434] conv7/dw <- conv6
I1102 19:05:39.534059  2431 net.cpp:408] conv7/dw -> conv7/dw
I1102 19:05:39.534267  2431 net.cpp:150] Setting up conv7/dw
I1102 19:05:39.534273  2431 net.cpp:157] Top shape: 24 512 19 19 (4435968)
I1102 19:05:39.534276  2431 net.cpp:165] Memory required for data: 2901995968
I1102 19:05:39.534281  2431 layer_factory.hpp:77] Creating layer conv7/dw/bn
I1102 19:05:39.534284  2431 net.cpp:100] Creating Layer conv7/dw/bn
I1102 19:05:39.534287  2431 net.cpp:434] conv7/dw/bn <- conv7/dw
I1102 19:05:39.534291  2431 net.cpp:395] conv7/dw/bn -> conv7/dw (in-place)
I1102 19:05:39.534404  2431 net.cpp:150] Setting up conv7/dw/bn
I1102 19:05:39.534409  2431 net.cpp:157] Top shape: 24 512 19 19 (4435968)
I1102 19:05:39.534412  2431 net.cpp:165] Memory required for data: 2919739840
I1102 19:05:39.534417  2431 layer_factory.hpp:77] Creating layer conv7/dw/scale
I1102 19:05:39.534437  2431 net.cpp:100] Creating Layer conv7/dw/scale
I1102 19:05:39.534440  2431 net.cpp:434] conv7/dw/scale <- conv7/dw
I1102 19:05:39.534445  2431 net.cpp:395] conv7/dw/scale -> conv7/dw (in-place)
I1102 19:05:39.534512  2431 layer_factory.hpp:77] Creating layer conv7/dw/scale
I1102 19:05:39.534634  2431 net.cpp:150] Setting up conv7/dw/scale
I1102 19:05:39.534639  2431 net.cpp:157] Top shape: 24 512 19 19 (4435968)
I1102 19:05:39.534642  2431 net.cpp:165] Memory required for data: 2937483712
I1102 19:05:39.534657  2431 layer_factory.hpp:77] Creating layer conv7/dw/relu
I1102 19:05:39.534662  2431 net.cpp:100] Creating Layer conv7/dw/relu
I1102 19:05:39.534664  2431 net.cpp:434] conv7/dw/relu <- conv7/dw
I1102 19:05:39.534668  2431 net.cpp:395] conv7/dw/relu -> conv7/dw (in-place)
I1102 19:05:39.534777  2431 net.cpp:150] Setting up conv7/dw/relu
I1102 19:05:39.534785  2431 net.cpp:157] Top shape: 24 512 19 19 (4435968)
I1102 19:05:39.534787  2431 net.cpp:165] Memory required for data: 2955227584
I1102 19:05:39.534790  2431 layer_factory.hpp:77] Creating layer conv7
I1102 19:05:39.534797  2431 net.cpp:100] Creating Layer conv7
I1102 19:05:39.534801  2431 net.cpp:434] conv7 <- conv7/dw
I1102 19:05:39.534804  2431 net.cpp:408] conv7 -> conv7
I1102 19:05:39.546182  2431 net.cpp:150] Setting up conv7
I1102 19:05:39.546210  2431 net.cpp:157] Top shape: 24 512 19 19 (4435968)
I1102 19:05:39.546216  2431 net.cpp:165] Memory required for data: 2972971456
I1102 19:05:39.546224  2431 layer_factory.hpp:77] Creating layer conv7/bn
I1102 19:05:39.546236  2431 net.cpp:100] Creating Layer conv7/bn
I1102 19:05:39.546241  2431 net.cpp:434] conv7/bn <- conv7
I1102 19:05:39.546249  2431 net.cpp:395] conv7/bn -> conv7 (in-place)
I1102 19:05:39.546440  2431 net.cpp:150] Setting up conv7/bn
I1102 19:05:39.546448  2431 net.cpp:157] Top shape: 24 512 19 19 (4435968)
I1102 19:05:39.546452  2431 net.cpp:165] Memory required for data: 2990715328
I1102 19:05:39.546461  2431 layer_factory.hpp:77] Creating layer conv7/scale
I1102 19:05:39.546470  2431 net.cpp:100] Creating Layer conv7/scale
I1102 19:05:39.546475  2431 net.cpp:434] conv7/scale <- conv7
I1102 19:05:39.546483  2431 net.cpp:395] conv7/scale -> conv7 (in-place)
I1102 19:05:39.546525  2431 layer_factory.hpp:77] Creating layer conv7/scale
I1102 19:05:39.546625  2431 net.cpp:150] Setting up conv7/scale
I1102 19:05:39.546633  2431 net.cpp:157] Top shape: 24 512 19 19 (4435968)
I1102 19:05:39.546638  2431 net.cpp:165] Memory required for data: 3008459200
I1102 19:05:39.546644  2431 layer_factory.hpp:77] Creating layer conv7/relu
I1102 19:05:39.546650  2431 net.cpp:100] Creating Layer conv7/relu
I1102 19:05:39.546655  2431 net.cpp:434] conv7/relu <- conv7
I1102 19:05:39.546661  2431 net.cpp:395] conv7/relu -> conv7 (in-place)
I1102 19:05:39.546821  2431 net.cpp:150] Setting up conv7/relu
I1102 19:05:39.546829  2431 net.cpp:157] Top shape: 24 512 19 19 (4435968)
I1102 19:05:39.546834  2431 net.cpp:165] Memory required for data: 3026203072
I1102 19:05:39.546839  2431 layer_factory.hpp:77] Creating layer conv8/dw
I1102 19:05:39.546849  2431 net.cpp:100] Creating Layer conv8/dw
I1102 19:05:39.546854  2431 net.cpp:434] conv8/dw <- conv7
I1102 19:05:39.546860  2431 net.cpp:408] conv8/dw -> conv8/dw
I1102 19:05:39.547184  2431 net.cpp:150] Setting up conv8/dw
I1102 19:05:39.547191  2431 net.cpp:157] Top shape: 24 512 19 19 (4435968)
I1102 19:05:39.547196  2431 net.cpp:165] Memory required for data: 3043946944
I1102 19:05:39.547202  2431 layer_factory.hpp:77] Creating layer conv8/dw/bn
I1102 19:05:39.547209  2431 net.cpp:100] Creating Layer conv8/dw/bn
I1102 19:05:39.547214  2431 net.cpp:434] conv8/dw/bn <- conv8/dw
I1102 19:05:39.547219  2431 net.cpp:395] conv8/dw/bn -> conv8/dw (in-place)
I1102 19:05:39.547395  2431 net.cpp:150] Setting up conv8/dw/bn
I1102 19:05:39.547416  2431 net.cpp:157] Top shape: 24 512 19 19 (4435968)
I1102 19:05:39.547420  2431 net.cpp:165] Memory required for data: 3061690816
I1102 19:05:39.547425  2431 layer_factory.hpp:77] Creating layer conv8/dw/scale
I1102 19:05:39.547435  2431 net.cpp:100] Creating Layer conv8/dw/scale
I1102 19:05:39.547438  2431 net.cpp:434] conv8/dw/scale <- conv8/dw
I1102 19:05:39.547442  2431 net.cpp:395] conv8/dw/scale -> conv8/dw (in-place)
I1102 19:05:39.547489  2431 layer_factory.hpp:77] Creating layer conv8/dw/scale
I1102 19:05:39.547618  2431 net.cpp:150] Setting up conv8/dw/scale
I1102 19:05:39.547627  2431 net.cpp:157] Top shape: 24 512 19 19 (4435968)
I1102 19:05:39.547632  2431 net.cpp:165] Memory required for data: 3079434688
I1102 19:05:39.547654  2431 layer_factory.hpp:77] Creating layer conv8/dw/relu
I1102 19:05:39.547662  2431 net.cpp:100] Creating Layer conv8/dw/relu
I1102 19:05:39.547667  2431 net.cpp:434] conv8/dw/relu <- conv8/dw
I1102 19:05:39.547672  2431 net.cpp:395] conv8/dw/relu -> conv8/dw (in-place)
I1102 19:05:39.547844  2431 net.cpp:150] Setting up conv8/dw/relu
I1102 19:05:39.547854  2431 net.cpp:157] Top shape: 24 512 19 19 (4435968)
I1102 19:05:39.547859  2431 net.cpp:165] Memory required for data: 3097178560
I1102 19:05:39.547865  2431 layer_factory.hpp:77] Creating layer conv8
I1102 19:05:39.547874  2431 net.cpp:100] Creating Layer conv8
I1102 19:05:39.547880  2431 net.cpp:434] conv8 <- conv8/dw
I1102 19:05:39.547886  2431 net.cpp:408] conv8 -> conv8
I1102 19:05:39.570515  2431 net.cpp:150] Setting up conv8
I1102 19:05:39.570536  2431 net.cpp:157] Top shape: 24 512 19 19 (4435968)
I1102 19:05:39.570540  2431 net.cpp:165] Memory required for data: 3114922432
I1102 19:05:39.570547  2431 layer_factory.hpp:77] Creating layer conv8/bn
I1102 19:05:39.570574  2431 net.cpp:100] Creating Layer conv8/bn
I1102 19:05:39.570595  2431 net.cpp:434] conv8/bn <- conv8
I1102 19:05:39.570602  2431 net.cpp:395] conv8/bn -> conv8 (in-place)
I1102 19:05:39.570878  2431 net.cpp:150] Setting up conv8/bn
I1102 19:05:39.570888  2431 net.cpp:157] Top shape: 24 512 19 19 (4435968)
I1102 19:05:39.570907  2431 net.cpp:165] Memory required for data: 3132666304
I1102 19:05:39.570916  2431 layer_factory.hpp:77] Creating layer conv8/scale
I1102 19:05:39.570940  2431 net.cpp:100] Creating Layer conv8/scale
I1102 19:05:39.570945  2431 net.cpp:434] conv8/scale <- conv8
I1102 19:05:39.570951  2431 net.cpp:395] conv8/scale -> conv8 (in-place)
I1102 19:05:39.571022  2431 layer_factory.hpp:77] Creating layer conv8/scale
I1102 19:05:39.571178  2431 net.cpp:150] Setting up conv8/scale
I1102 19:05:39.571202  2431 net.cpp:157] Top shape: 24 512 19 19 (4435968)
I1102 19:05:39.571207  2431 net.cpp:165] Memory required for data: 3150410176
I1102 19:05:39.571228  2431 layer_factory.hpp:77] Creating layer conv8/relu
I1102 19:05:39.571236  2431 net.cpp:100] Creating Layer conv8/relu
I1102 19:05:39.571241  2431 net.cpp:434] conv8/relu <- conv8
I1102 19:05:39.571250  2431 net.cpp:395] conv8/relu -> conv8 (in-place)
I1102 19:05:39.571413  2431 net.cpp:150] Setting up conv8/relu
I1102 19:05:39.571419  2431 net.cpp:157] Top shape: 24 512 19 19 (4435968)
I1102 19:05:39.571422  2431 net.cpp:165] Memory required for data: 3168154048
I1102 19:05:39.571426  2431 layer_factory.hpp:77] Creating layer conv9/dw
I1102 19:05:39.571447  2431 net.cpp:100] Creating Layer conv9/dw
I1102 19:05:39.571451  2431 net.cpp:434] conv9/dw <- conv8
I1102 19:05:39.571456  2431 net.cpp:408] conv9/dw -> conv9/dw
I1102 19:05:39.571712  2431 net.cpp:150] Setting up conv9/dw
I1102 19:05:39.571719  2431 net.cpp:157] Top shape: 24 512 19 19 (4435968)
I1102 19:05:39.571722  2431 net.cpp:165] Memory required for data: 3185897920
I1102 19:05:39.571727  2431 layer_factory.hpp:77] Creating layer conv9/dw/bn
I1102 19:05:39.571732  2431 net.cpp:100] Creating Layer conv9/dw/bn
I1102 19:05:39.571748  2431 net.cpp:434] conv9/dw/bn <- conv9/dw
I1102 19:05:39.571753  2431 net.cpp:395] conv9/dw/bn -> conv9/dw (in-place)
I1102 19:05:39.571913  2431 net.cpp:150] Setting up conv9/dw/bn
I1102 19:05:39.571918  2431 net.cpp:157] Top shape: 24 512 19 19 (4435968)
I1102 19:05:39.571921  2431 net.cpp:165] Memory required for data: 3203641792
I1102 19:05:39.571928  2431 layer_factory.hpp:77] Creating layer conv9/dw/scale
I1102 19:05:39.571946  2431 net.cpp:100] Creating Layer conv9/dw/scale
I1102 19:05:39.571949  2431 net.cpp:434] conv9/dw/scale <- conv9/dw
I1102 19:05:39.571954  2431 net.cpp:395] conv9/dw/scale -> conv9/dw (in-place)
I1102 19:05:39.574663  2431 layer_factory.hpp:77] Creating layer conv9/dw/scale
I1102 19:05:39.574837  2431 net.cpp:150] Setting up conv9/dw/scale
I1102 19:05:39.574858  2431 net.cpp:157] Top shape: 24 512 19 19 (4435968)
I1102 19:05:39.574875  2431 net.cpp:165] Memory required for data: 3221385664
I1102 19:05:39.574906  2431 layer_factory.hpp:77] Creating layer conv9/dw/relu
I1102 19:05:39.574913  2431 net.cpp:100] Creating Layer conv9/dw/relu
I1102 19:05:39.574916  2431 net.cpp:434] conv9/dw/relu <- conv9/dw
I1102 19:05:39.574923  2431 net.cpp:395] conv9/dw/relu -> conv9/dw (in-place)
I1102 19:05:39.575522  2431 net.cpp:150] Setting up conv9/dw/relu
I1102 19:05:39.575532  2431 net.cpp:157] Top shape: 24 512 19 19 (4435968)
I1102 19:05:39.575536  2431 net.cpp:165] Memory required for data: 3239129536
I1102 19:05:39.575539  2431 layer_factory.hpp:77] Creating layer conv9
I1102 19:05:39.575562  2431 net.cpp:100] Creating Layer conv9
I1102 19:05:39.575565  2431 net.cpp:434] conv9 <- conv9/dw
I1102 19:05:39.575570  2431 net.cpp:408] conv9 -> conv9
I1102 19:05:39.590322  2431 net.cpp:150] Setting up conv9
I1102 19:05:39.590340  2431 net.cpp:157] Top shape: 24 512 19 19 (4435968)
I1102 19:05:39.590344  2431 net.cpp:165] Memory required for data: 3256873408
I1102 19:05:39.590364  2431 layer_factory.hpp:77] Creating layer conv9/bn
I1102 19:05:39.590373  2431 net.cpp:100] Creating Layer conv9/bn
I1102 19:05:39.590378  2431 net.cpp:434] conv9/bn <- conv9
I1102 19:05:39.590384  2431 net.cpp:395] conv9/bn -> conv9 (in-place)
I1102 19:05:39.590554  2431 net.cpp:150] Setting up conv9/bn
I1102 19:05:39.590560  2431 net.cpp:157] Top shape: 24 512 19 19 (4435968)
I1102 19:05:39.590564  2431 net.cpp:165] Memory required for data: 3274617280
I1102 19:05:39.590569  2431 layer_factory.hpp:77] Creating layer conv9/scale
I1102 19:05:39.590590  2431 net.cpp:100] Creating Layer conv9/scale
I1102 19:05:39.590592  2431 net.cpp:434] conv9/scale <- conv9
I1102 19:05:39.590597  2431 net.cpp:395] conv9/scale -> conv9 (in-place)
I1102 19:05:39.590653  2431 layer_factory.hpp:77] Creating layer conv9/scale
I1102 19:05:39.590781  2431 net.cpp:150] Setting up conv9/scale
I1102 19:05:39.590787  2431 net.cpp:157] Top shape: 24 512 19 19 (4435968)
I1102 19:05:39.590790  2431 net.cpp:165] Memory required for data: 3292361152
I1102 19:05:39.590795  2431 layer_factory.hpp:77] Creating layer conv9/relu
I1102 19:05:39.590812  2431 net.cpp:100] Creating Layer conv9/relu
I1102 19:05:39.590816  2431 net.cpp:434] conv9/relu <- conv9
I1102 19:05:39.590833  2431 net.cpp:395] conv9/relu -> conv9 (in-place)
I1102 19:05:39.590986  2431 net.cpp:150] Setting up conv9/relu
I1102 19:05:39.590993  2431 net.cpp:157] Top shape: 24 512 19 19 (4435968)
I1102 19:05:39.590996  2431 net.cpp:165] Memory required for data: 3310105024
I1102 19:05:39.590999  2431 layer_factory.hpp:77] Creating layer conv10/dw
I1102 19:05:39.591020  2431 net.cpp:100] Creating Layer conv10/dw
I1102 19:05:39.591023  2431 net.cpp:434] conv10/dw <- conv9
I1102 19:05:39.591028  2431 net.cpp:408] conv10/dw -> conv10/dw
I1102 19:05:39.591274  2431 net.cpp:150] Setting up conv10/dw
I1102 19:05:39.591279  2431 net.cpp:157] Top shape: 24 512 19 19 (4435968)
I1102 19:05:39.591282  2431 net.cpp:165] Memory required for data: 3327848896
I1102 19:05:39.591285  2431 layer_factory.hpp:77] Creating layer conv10/dw/bn
I1102 19:05:39.591290  2431 net.cpp:100] Creating Layer conv10/dw/bn
I1102 19:05:39.591307  2431 net.cpp:434] conv10/dw/bn <- conv10/dw
I1102 19:05:39.591311  2431 net.cpp:395] conv10/dw/bn -> conv10/dw (in-place)
I1102 19:05:39.591444  2431 net.cpp:150] Setting up conv10/dw/bn
I1102 19:05:39.591449  2431 net.cpp:157] Top shape: 24 512 19 19 (4435968)
I1102 19:05:39.591451  2431 net.cpp:165] Memory required for data: 3345592768
I1102 19:05:39.591456  2431 layer_factory.hpp:77] Creating layer conv10/dw/scale
I1102 19:05:39.591476  2431 net.cpp:100] Creating Layer conv10/dw/scale
I1102 19:05:39.591480  2431 net.cpp:434] conv10/dw/scale <- conv10/dw
I1102 19:05:39.591483  2431 net.cpp:395] conv10/dw/scale -> conv10/dw (in-place)
I1102 19:05:39.591534  2431 layer_factory.hpp:77] Creating layer conv10/dw/scale
I1102 19:05:39.591655  2431 net.cpp:150] Setting up conv10/dw/scale
I1102 19:05:39.591660  2431 net.cpp:157] Top shape: 24 512 19 19 (4435968)
I1102 19:05:39.591663  2431 net.cpp:165] Memory required for data: 3363336640
I1102 19:05:39.591706  2431 layer_factory.hpp:77] Creating layer conv10/dw/relu
I1102 19:05:39.591711  2431 net.cpp:100] Creating Layer conv10/dw/relu
I1102 19:05:39.591727  2431 net.cpp:434] conv10/dw/relu <- conv10/dw
I1102 19:05:39.591730  2431 net.cpp:395] conv10/dw/relu -> conv10/dw (in-place)
I1102 19:05:39.591871  2431 net.cpp:150] Setting up conv10/dw/relu
I1102 19:05:39.591876  2431 net.cpp:157] Top shape: 24 512 19 19 (4435968)
I1102 19:05:39.591879  2431 net.cpp:165] Memory required for data: 3381080512
I1102 19:05:39.591882  2431 layer_factory.hpp:77] Creating layer conv10
I1102 19:05:39.591902  2431 net.cpp:100] Creating Layer conv10
I1102 19:05:39.591907  2431 net.cpp:434] conv10 <- conv10/dw
I1102 19:05:39.591910  2431 net.cpp:408] conv10 -> conv10
I1102 19:05:39.606418  2431 net.cpp:150] Setting up conv10
I1102 19:05:39.606438  2431 net.cpp:157] Top shape: 24 512 19 19 (4435968)
I1102 19:05:39.606441  2431 net.cpp:165] Memory required for data: 3398824384
I1102 19:05:39.606462  2431 layer_factory.hpp:77] Creating layer conv10/bn
I1102 19:05:39.606472  2431 net.cpp:100] Creating Layer conv10/bn
I1102 19:05:39.606475  2431 net.cpp:434] conv10/bn <- conv10
I1102 19:05:39.606482  2431 net.cpp:395] conv10/bn -> conv10 (in-place)
I1102 19:05:39.606673  2431 net.cpp:150] Setting up conv10/bn
I1102 19:05:39.606680  2431 net.cpp:157] Top shape: 24 512 19 19 (4435968)
I1102 19:05:39.606683  2431 net.cpp:165] Memory required for data: 3416568256
I1102 19:05:39.606688  2431 layer_factory.hpp:77] Creating layer conv10/scale
I1102 19:05:39.606710  2431 net.cpp:100] Creating Layer conv10/scale
I1102 19:05:39.606714  2431 net.cpp:434] conv10/scale <- conv10
I1102 19:05:39.606719  2431 net.cpp:395] conv10/scale -> conv10 (in-place)
I1102 19:05:39.606762  2431 layer_factory.hpp:77] Creating layer conv10/scale
I1102 19:05:39.606833  2431 net.cpp:150] Setting up conv10/scale
I1102 19:05:39.606851  2431 net.cpp:157] Top shape: 24 512 19 19 (4435968)
I1102 19:05:39.606854  2431 net.cpp:165] Memory required for data: 3434312128
I1102 19:05:39.606859  2431 layer_factory.hpp:77] Creating layer conv10/relu
I1102 19:05:39.606878  2431 net.cpp:100] Creating Layer conv10/relu
I1102 19:05:39.606883  2431 net.cpp:434] conv10/relu <- conv10
I1102 19:05:39.606899  2431 net.cpp:395] conv10/relu -> conv10 (in-place)
I1102 19:05:39.607028  2431 net.cpp:150] Setting up conv10/relu
I1102 19:05:39.607034  2431 net.cpp:157] Top shape: 24 512 19 19 (4435968)
I1102 19:05:39.607038  2431 net.cpp:165] Memory required for data: 3452056000
I1102 19:05:39.607040  2431 layer_factory.hpp:77] Creating layer conv11/dw
I1102 19:05:39.607062  2431 net.cpp:100] Creating Layer conv11/dw
I1102 19:05:39.607066  2431 net.cpp:434] conv11/dw <- conv10
I1102 19:05:39.607070  2431 net.cpp:408] conv11/dw -> conv11/dw
I1102 19:05:39.607326  2431 net.cpp:150] Setting up conv11/dw
I1102 19:05:39.607333  2431 net.cpp:157] Top shape: 24 512 19 19 (4435968)
I1102 19:05:39.607336  2431 net.cpp:165] Memory required for data: 3469799872
I1102 19:05:39.607340  2431 layer_factory.hpp:77] Creating layer conv11/dw/bn
I1102 19:05:39.607344  2431 net.cpp:100] Creating Layer conv11/dw/bn
I1102 19:05:39.607362  2431 net.cpp:434] conv11/dw/bn <- conv11/dw
I1102 19:05:39.607367  2431 net.cpp:395] conv11/dw/bn -> conv11/dw (in-place)
I1102 19:05:39.607514  2431 net.cpp:150] Setting up conv11/dw/bn
I1102 19:05:39.607519  2431 net.cpp:157] Top shape: 24 512 19 19 (4435968)
I1102 19:05:39.607522  2431 net.cpp:165] Memory required for data: 3487543744
I1102 19:05:39.607553  2431 layer_factory.hpp:77] Creating layer conv11/dw/scale
I1102 19:05:39.607558  2431 net.cpp:100] Creating Layer conv11/dw/scale
I1102 19:05:39.607560  2431 net.cpp:434] conv11/dw/scale <- conv11/dw
I1102 19:05:39.607565  2431 net.cpp:395] conv11/dw/scale -> conv11/dw (in-place)
I1102 19:05:39.607592  2431 layer_factory.hpp:77] Creating layer conv11/dw/scale
I1102 19:05:39.607687  2431 net.cpp:150] Setting up conv11/dw/scale
I1102 19:05:39.607692  2431 net.cpp:157] Top shape: 24 512 19 19 (4435968)
I1102 19:05:39.607720  2431 net.cpp:165] Memory required for data: 3505287616
I1102 19:05:39.607727  2431 layer_factory.hpp:77] Creating layer conv11/dw/relu
I1102 19:05:39.607731  2431 net.cpp:100] Creating Layer conv11/dw/relu
I1102 19:05:39.607734  2431 net.cpp:434] conv11/dw/relu <- conv11/dw
I1102 19:05:39.607738  2431 net.cpp:395] conv11/dw/relu -> conv11/dw (in-place)
I1102 19:05:39.612448  2431 net.cpp:150] Setting up conv11/dw/relu
I1102 19:05:39.612475  2431 net.cpp:157] Top shape: 24 512 19 19 (4435968)
I1102 19:05:39.612481  2431 net.cpp:165] Memory required for data: 3523031488
I1102 19:05:39.612502  2431 layer_factory.hpp:77] Creating layer conv11
I1102 19:05:39.612521  2431 net.cpp:100] Creating Layer conv11
I1102 19:05:39.612529  2431 net.cpp:434] conv11 <- conv11/dw
I1102 19:05:39.612540  2431 net.cpp:408] conv11 -> conv11
I1102 19:05:39.627185  2431 net.cpp:150] Setting up conv11
I1102 19:05:39.627198  2431 net.cpp:157] Top shape: 24 512 19 19 (4435968)
I1102 19:05:39.627202  2431 net.cpp:165] Memory required for data: 3540775360
I1102 19:05:39.627207  2431 layer_factory.hpp:77] Creating layer conv11/bn
I1102 19:05:39.627228  2431 net.cpp:100] Creating Layer conv11/bn
I1102 19:05:39.627231  2431 net.cpp:434] conv11/bn <- conv11
I1102 19:05:39.627236  2431 net.cpp:395] conv11/bn -> conv11 (in-place)
I1102 19:05:39.627424  2431 net.cpp:150] Setting up conv11/bn
I1102 19:05:39.627429  2431 net.cpp:157] Top shape: 24 512 19 19 (4435968)
I1102 19:05:39.627432  2431 net.cpp:165] Memory required for data: 3558519232
I1102 19:05:39.627439  2431 layer_factory.hpp:77] Creating layer conv11/scale
I1102 19:05:39.627460  2431 net.cpp:100] Creating Layer conv11/scale
I1102 19:05:39.627463  2431 net.cpp:434] conv11/scale <- conv11
I1102 19:05:39.627466  2431 net.cpp:395] conv11/scale -> conv11 (in-place)
I1102 19:05:39.627512  2431 layer_factory.hpp:77] Creating layer conv11/scale
I1102 19:05:39.627614  2431 net.cpp:150] Setting up conv11/scale
I1102 19:05:39.627620  2431 net.cpp:157] Top shape: 24 512 19 19 (4435968)
I1102 19:05:39.627622  2431 net.cpp:165] Memory required for data: 3576263104
I1102 19:05:39.627627  2431 layer_factory.hpp:77] Creating layer conv11/relu
I1102 19:05:39.627647  2431 net.cpp:100] Creating Layer conv11/relu
I1102 19:05:39.627650  2431 net.cpp:434] conv11/relu <- conv11
I1102 19:05:39.627653  2431 net.cpp:395] conv11/relu -> conv11 (in-place)
I1102 19:05:39.628278  2431 net.cpp:150] Setting up conv11/relu
I1102 19:05:39.628288  2431 net.cpp:157] Top shape: 24 512 19 19 (4435968)
I1102 19:05:39.628290  2431 net.cpp:165] Memory required for data: 3594006976
I1102 19:05:39.628293  2431 layer_factory.hpp:77] Creating layer conv11_conv11/relu_0_split
I1102 19:05:39.628312  2431 net.cpp:100] Creating Layer conv11_conv11/relu_0_split
I1102 19:05:39.628316  2431 net.cpp:434] conv11_conv11/relu_0_split <- conv11
I1102 19:05:39.628321  2431 net.cpp:408] conv11_conv11/relu_0_split -> conv11_conv11/relu_0_split_0
I1102 19:05:39.628331  2431 net.cpp:408] conv11_conv11/relu_0_split -> conv11_conv11/relu_0_split_1
I1102 19:05:39.628337  2431 net.cpp:408] conv11_conv11/relu_0_split -> conv11_conv11/relu_0_split_2
I1102 19:05:39.628342  2431 net.cpp:408] conv11_conv11/relu_0_split -> conv11_conv11/relu_0_split_3
I1102 19:05:39.628413  2431 net.cpp:150] Setting up conv11_conv11/relu_0_split
I1102 19:05:39.628419  2431 net.cpp:157] Top shape: 24 512 19 19 (4435968)
I1102 19:05:39.628424  2431 net.cpp:157] Top shape: 24 512 19 19 (4435968)
I1102 19:05:39.628427  2431 net.cpp:157] Top shape: 24 512 19 19 (4435968)
I1102 19:05:39.628430  2431 net.cpp:157] Top shape: 24 512 19 19 (4435968)
I1102 19:05:39.628433  2431 net.cpp:165] Memory required for data: 3664982464
I1102 19:05:39.628437  2431 layer_factory.hpp:77] Creating layer conv12/dw
I1102 19:05:39.628458  2431 net.cpp:100] Creating Layer conv12/dw
I1102 19:05:39.628473  2431 net.cpp:434] conv12/dw <- conv11_conv11/relu_0_split_0
I1102 19:05:39.628480  2431 net.cpp:408] conv12/dw -> conv12/dw
I1102 19:05:39.628720  2431 net.cpp:150] Setting up conv12/dw
I1102 19:05:39.628734  2431 net.cpp:157] Top shape: 24 512 10 10 (1228800)
I1102 19:05:39.628737  2431 net.cpp:165] Memory required for data: 3669897664
I1102 19:05:39.628741  2431 layer_factory.hpp:77] Creating layer conv12/dw/bn
I1102 19:05:39.628746  2431 net.cpp:100] Creating Layer conv12/dw/bn
I1102 19:05:39.628762  2431 net.cpp:434] conv12/dw/bn <- conv12/dw
I1102 19:05:39.628767  2431 net.cpp:395] conv12/dw/bn -> conv12/dw (in-place)
I1102 19:05:39.628937  2431 net.cpp:150] Setting up conv12/dw/bn
I1102 19:05:39.628942  2431 net.cpp:157] Top shape: 24 512 10 10 (1228800)
I1102 19:05:39.628945  2431 net.cpp:165] Memory required for data: 3674812864
I1102 19:05:39.628952  2431 layer_factory.hpp:77] Creating layer conv12/dw/scale
I1102 19:05:39.628970  2431 net.cpp:100] Creating Layer conv12/dw/scale
I1102 19:05:39.628973  2431 net.cpp:434] conv12/dw/scale <- conv12/dw
I1102 19:05:39.628978  2431 net.cpp:395] conv12/dw/scale -> conv12/dw (in-place)
I1102 19:05:39.629030  2431 layer_factory.hpp:77] Creating layer conv12/dw/scale
I1102 19:05:39.629149  2431 net.cpp:150] Setting up conv12/dw/scale
I1102 19:05:39.629155  2431 net.cpp:157] Top shape: 24 512 10 10 (1228800)
I1102 19:05:39.629158  2431 net.cpp:165] Memory required for data: 3679728064
I1102 19:05:39.629163  2431 layer_factory.hpp:77] Creating layer conv12/dw/relu
I1102 19:05:39.629168  2431 net.cpp:100] Creating Layer conv12/dw/relu
I1102 19:05:39.629184  2431 net.cpp:434] conv12/dw/relu <- conv12/dw
I1102 19:05:39.629189  2431 net.cpp:395] conv12/dw/relu -> conv12/dw (in-place)
I1102 19:05:39.629684  2431 net.cpp:150] Setting up conv12/dw/relu
I1102 19:05:39.629693  2431 net.cpp:157] Top shape: 24 512 10 10 (1228800)
I1102 19:05:39.629696  2431 net.cpp:165] Memory required for data: 3684643264
I1102 19:05:39.629699  2431 layer_factory.hpp:77] Creating layer conv12
I1102 19:05:39.629720  2431 net.cpp:100] Creating Layer conv12
I1102 19:05:39.629724  2431 net.cpp:434] conv12 <- conv12/dw
I1102 19:05:39.629745  2431 net.cpp:408] conv12 -> conv12
I1102 19:05:39.656741  2431 net.cpp:150] Setting up conv12
I1102 19:05:39.656760  2431 net.cpp:157] Top shape: 24 1024 10 10 (2457600)
I1102 19:05:39.656764  2431 net.cpp:165] Memory required for data: 3694473664
I1102 19:05:39.656785  2431 layer_factory.hpp:77] Creating layer conv12/bn
I1102 19:05:39.656793  2431 net.cpp:100] Creating Layer conv12/bn
I1102 19:05:39.656798  2431 net.cpp:434] conv12/bn <- conv12
I1102 19:05:39.656817  2431 net.cpp:395] conv12/bn -> conv12 (in-place)
I1102 19:05:39.657004  2431 net.cpp:150] Setting up conv12/bn
I1102 19:05:39.657009  2431 net.cpp:157] Top shape: 24 1024 10 10 (2457600)
I1102 19:05:39.657012  2431 net.cpp:165] Memory required for data: 3704304064
I1102 19:05:39.657018  2431 layer_factory.hpp:77] Creating layer conv12/scale
I1102 19:05:39.657024  2431 net.cpp:100] Creating Layer conv12/scale
I1102 19:05:39.657042  2431 net.cpp:434] conv12/scale <- conv12
I1102 19:05:39.657047  2431 net.cpp:395] conv12/scale -> conv12 (in-place)
I1102 19:05:39.657088  2431 layer_factory.hpp:77] Creating layer conv12/scale
I1102 19:05:39.657171  2431 net.cpp:150] Setting up conv12/scale
I1102 19:05:39.657176  2431 net.cpp:157] Top shape: 24 1024 10 10 (2457600)
I1102 19:05:39.657191  2431 net.cpp:165] Memory required for data: 3714134464
I1102 19:05:39.657196  2431 layer_factory.hpp:77] Creating layer conv12/relu
I1102 19:05:39.657214  2431 net.cpp:100] Creating Layer conv12/relu
I1102 19:05:39.657217  2431 net.cpp:434] conv12/relu <- conv12
I1102 19:05:39.657222  2431 net.cpp:395] conv12/relu -> conv12 (in-place)
I1102 19:05:39.657366  2431 net.cpp:150] Setting up conv12/relu
I1102 19:05:39.657372  2431 net.cpp:157] Top shape: 24 1024 10 10 (2457600)
I1102 19:05:39.657375  2431 net.cpp:165] Memory required for data: 3723964864
I1102 19:05:39.657378  2431 layer_factory.hpp:77] Creating layer conv13/dw
I1102 19:05:39.657402  2431 net.cpp:100] Creating Layer conv13/dw
I1102 19:05:39.657404  2431 net.cpp:434] conv13/dw <- conv12
I1102 19:05:39.657408  2431 net.cpp:408] conv13/dw -> conv13/dw
I1102 19:05:39.657774  2431 net.cpp:150] Setting up conv13/dw
I1102 19:05:39.657780  2431 net.cpp:157] Top shape: 24 1024 10 10 (2457600)
I1102 19:05:39.657783  2431 net.cpp:165] Memory required for data: 3733795264
I1102 19:05:39.657786  2431 layer_factory.hpp:77] Creating layer conv13/dw/bn
I1102 19:05:39.657793  2431 net.cpp:100] Creating Layer conv13/dw/bn
I1102 19:05:39.657809  2431 net.cpp:434] conv13/dw/bn <- conv13/dw
I1102 19:05:39.657814  2431 net.cpp:395] conv13/dw/bn -> conv13/dw (in-place)
I1102 19:05:39.657953  2431 net.cpp:150] Setting up conv13/dw/bn
I1102 19:05:39.657958  2431 net.cpp:157] Top shape: 24 1024 10 10 (2457600)
I1102 19:05:39.657960  2431 net.cpp:165] Memory required for data: 3743625664
I1102 19:05:39.657965  2431 layer_factory.hpp:77] Creating layer conv13/dw/scale
I1102 19:05:39.657985  2431 net.cpp:100] Creating Layer conv13/dw/scale
I1102 19:05:39.657989  2431 net.cpp:434] conv13/dw/scale <- conv13/dw
I1102 19:05:39.657992  2431 net.cpp:395] conv13/dw/scale -> conv13/dw (in-place)
I1102 19:05:39.658032  2431 layer_factory.hpp:77] Creating layer conv13/dw/scale
I1102 19:05:39.658149  2431 net.cpp:150] Setting up conv13/dw/scale
I1102 19:05:39.658154  2431 net.cpp:157] Top shape: 24 1024 10 10 (2457600)
I1102 19:05:39.658156  2431 net.cpp:165] Memory required for data: 3753456064
I1102 19:05:39.658160  2431 layer_factory.hpp:77] Creating layer conv13/dw/relu
I1102 19:05:39.658165  2431 net.cpp:100] Creating Layer conv13/dw/relu
I1102 19:05:39.658183  2431 net.cpp:434] conv13/dw/relu <- conv13/dw
I1102 19:05:39.658186  2431 net.cpp:395] conv13/dw/relu -> conv13/dw (in-place)
I1102 19:05:39.658313  2431 net.cpp:150] Setting up conv13/dw/relu
I1102 19:05:39.658321  2431 net.cpp:157] Top shape: 24 1024 10 10 (2457600)
I1102 19:05:39.658324  2431 net.cpp:165] Memory required for data: 3763286464
I1102 19:05:39.658326  2431 layer_factory.hpp:77] Creating layer conv13
I1102 19:05:39.658346  2431 net.cpp:100] Creating Layer conv13
I1102 19:05:39.658350  2431 net.cpp:434] conv13 <- conv13/dw
I1102 19:05:39.658355  2431 net.cpp:408] conv13 -> conv13
I1102 19:05:39.706431  2431 net.cpp:150] Setting up conv13
I1102 19:05:39.706449  2431 net.cpp:157] Top shape: 24 1024 10 10 (2457600)
I1102 19:05:39.706452  2431 net.cpp:165] Memory required for data: 3773116864
I1102 19:05:39.706459  2431 layer_factory.hpp:77] Creating layer conv13/bn
I1102 19:05:39.706465  2431 net.cpp:100] Creating Layer conv13/bn
I1102 19:05:39.706470  2431 net.cpp:434] conv13/bn <- conv13
I1102 19:05:39.706476  2431 net.cpp:395] conv13/bn -> conv13 (in-place)
I1102 19:05:39.706693  2431 net.cpp:150] Setting up conv13/bn
I1102 19:05:39.706699  2431 net.cpp:157] Top shape: 24 1024 10 10 (2457600)
I1102 19:05:39.706702  2431 net.cpp:165] Memory required for data: 3782947264
I1102 19:05:39.706707  2431 layer_factory.hpp:77] Creating layer conv13/scale
I1102 19:05:39.706728  2431 net.cpp:100] Creating Layer conv13/scale
I1102 19:05:39.706732  2431 net.cpp:434] conv13/scale <- conv13
I1102 19:05:39.706737  2431 net.cpp:395] conv13/scale -> conv13 (in-place)
I1102 19:05:39.706779  2431 layer_factory.hpp:77] Creating layer conv13/scale
I1102 19:05:39.706902  2431 net.cpp:150] Setting up conv13/scale
I1102 19:05:39.706907  2431 net.cpp:157] Top shape: 24 1024 10 10 (2457600)
I1102 19:05:39.706910  2431 net.cpp:165] Memory required for data: 3792777664
I1102 19:05:39.706926  2431 layer_factory.hpp:77] Creating layer conv13/relu
I1102 19:05:39.706931  2431 net.cpp:100] Creating Layer conv13/relu
I1102 19:05:39.706934  2431 net.cpp:434] conv13/relu <- conv13
I1102 19:05:39.706954  2431 net.cpp:395] conv13/relu -> conv13 (in-place)
I1102 19:05:39.709187  2431 net.cpp:150] Setting up conv13/relu
I1102 19:05:39.709197  2431 net.cpp:157] Top shape: 24 1024 10 10 (2457600)
I1102 19:05:39.709199  2431 net.cpp:165] Memory required for data: 3802608064
I1102 19:05:39.709203  2431 layer_factory.hpp:77] Creating layer conv13_conv13/relu_0_split
I1102 19:05:39.709223  2431 net.cpp:100] Creating Layer conv13_conv13/relu_0_split
I1102 19:05:39.709236  2431 net.cpp:434] conv13_conv13/relu_0_split <- conv13
I1102 19:05:39.709242  2431 net.cpp:408] conv13_conv13/relu_0_split -> conv13_conv13/relu_0_split_0
I1102 19:05:39.709249  2431 net.cpp:408] conv13_conv13/relu_0_split -> conv13_conv13/relu_0_split_1
I1102 19:05:39.709254  2431 net.cpp:408] conv13_conv13/relu_0_split -> conv13_conv13/relu_0_split_2
I1102 19:05:39.709278  2431 net.cpp:408] conv13_conv13/relu_0_split -> conv13_conv13/relu_0_split_3
I1102 19:05:39.709367  2431 net.cpp:150] Setting up conv13_conv13/relu_0_split
I1102 19:05:39.709372  2431 net.cpp:157] Top shape: 24 1024 10 10 (2457600)
I1102 19:05:39.709377  2431 net.cpp:157] Top shape: 24 1024 10 10 (2457600)
I1102 19:05:39.709379  2431 net.cpp:157] Top shape: 24 1024 10 10 (2457600)
I1102 19:05:39.709383  2431 net.cpp:157] Top shape: 24 1024 10 10 (2457600)
I1102 19:05:39.709384  2431 net.cpp:165] Memory required for data: 3841929664
I1102 19:05:39.709388  2431 layer_factory.hpp:77] Creating layer conv14_1
I1102 19:05:39.709395  2431 net.cpp:100] Creating Layer conv14_1
I1102 19:05:39.709398  2431 net.cpp:434] conv14_1 <- conv13_conv13/relu_0_split_0
I1102 19:05:39.709419  2431 net.cpp:408] conv14_1 -> conv14_1
I1102 19:05:39.721701  2431 net.cpp:150] Setting up conv14_1
I1102 19:05:39.721721  2431 net.cpp:157] Top shape: 24 256 10 10 (614400)
I1102 19:05:39.721725  2431 net.cpp:165] Memory required for data: 3844387264
I1102 19:05:39.721746  2431 layer_factory.hpp:77] Creating layer conv14_1/bn
I1102 19:05:39.721755  2431 net.cpp:100] Creating Layer conv14_1/bn
I1102 19:05:39.721772  2431 net.cpp:434] conv14_1/bn <- conv14_1
I1102 19:05:39.721778  2431 net.cpp:395] conv14_1/bn -> conv14_1 (in-place)
I1102 19:05:39.721961  2431 net.cpp:150] Setting up conv14_1/bn
I1102 19:05:39.721966  2431 net.cpp:157] Top shape: 24 256 10 10 (614400)
I1102 19:05:39.721969  2431 net.cpp:165] Memory required for data: 3846844864
I1102 19:05:39.721976  2431 layer_factory.hpp:77] Creating layer conv14_1/scale
I1102 19:05:39.721998  2431 net.cpp:100] Creating Layer conv14_1/scale
I1102 19:05:39.722002  2431 net.cpp:434] conv14_1/scale <- conv14_1
I1102 19:05:39.722005  2431 net.cpp:395] conv14_1/scale -> conv14_1 (in-place)
I1102 19:05:39.722050  2431 layer_factory.hpp:77] Creating layer conv14_1/scale
I1102 19:05:39.722128  2431 net.cpp:150] Setting up conv14_1/scale
I1102 19:05:39.722134  2431 net.cpp:157] Top shape: 24 256 10 10 (614400)
I1102 19:05:39.722137  2431 net.cpp:165] Memory required for data: 3849302464
I1102 19:05:39.722141  2431 layer_factory.hpp:77] Creating layer conv14_1/relu
I1102 19:05:39.722146  2431 net.cpp:100] Creating Layer conv14_1/relu
I1102 19:05:39.722149  2431 net.cpp:434] conv14_1/relu <- conv14_1
I1102 19:05:39.722153  2431 net.cpp:395] conv14_1/relu -> conv14_1 (in-place)
I1102 19:05:39.722728  2431 net.cpp:150] Setting up conv14_1/relu
I1102 19:05:39.722738  2431 net.cpp:157] Top shape: 24 256 10 10 (614400)
I1102 19:05:39.722740  2431 net.cpp:165] Memory required for data: 3851760064
I1102 19:05:39.722743  2431 layer_factory.hpp:77] Creating layer conv14_2
I1102 19:05:39.722767  2431 net.cpp:100] Creating Layer conv14_2
I1102 19:05:39.722771  2431 net.cpp:434] conv14_2 <- conv14_1
I1102 19:05:39.722776  2431 net.cpp:408] conv14_2 -> conv14_2
I1102 19:05:39.783607  2431 net.cpp:150] Setting up conv14_2
I1102 19:05:39.783628  2431 net.cpp:157] Top shape: 24 512 5 5 (307200)
I1102 19:05:39.783632  2431 net.cpp:165] Memory required for data: 3852988864
I1102 19:05:39.783653  2431 layer_factory.hpp:77] Creating layer conv14_2/bn
I1102 19:05:39.783660  2431 net.cpp:100] Creating Layer conv14_2/bn
I1102 19:05:39.783666  2431 net.cpp:434] conv14_2/bn <- conv14_2
I1102 19:05:39.783685  2431 net.cpp:395] conv14_2/bn -> conv14_2 (in-place)
I1102 19:05:39.783915  2431 net.cpp:150] Setting up conv14_2/bn
I1102 19:05:39.783920  2431 net.cpp:157] Top shape: 24 512 5 5 (307200)
I1102 19:05:39.783923  2431 net.cpp:165] Memory required for data: 3854217664
I1102 19:05:39.783928  2431 layer_factory.hpp:77] Creating layer conv14_2/scale
I1102 19:05:39.783960  2431 net.cpp:100] Creating Layer conv14_2/scale
I1102 19:05:39.783964  2431 net.cpp:434] conv14_2/scale <- conv14_2
I1102 19:05:39.783969  2431 net.cpp:395] conv14_2/scale -> conv14_2 (in-place)
I1102 19:05:39.784039  2431 layer_factory.hpp:77] Creating layer conv14_2/scale
I1102 19:05:39.784193  2431 net.cpp:150] Setting up conv14_2/scale
I1102 19:05:39.784212  2431 net.cpp:157] Top shape: 24 512 5 5 (307200)
I1102 19:05:39.784215  2431 net.cpp:165] Memory required for data: 3855446464
I1102 19:05:39.784232  2431 layer_factory.hpp:77] Creating layer conv14_2/relu
I1102 19:05:39.784237  2431 net.cpp:100] Creating Layer conv14_2/relu
I1102 19:05:39.784240  2431 net.cpp:434] conv14_2/relu <- conv14_2
I1102 19:05:39.784260  2431 net.cpp:395] conv14_2/relu -> conv14_2 (in-place)
I1102 19:05:39.784451  2431 net.cpp:150] Setting up conv14_2/relu
I1102 19:05:39.784457  2431 net.cpp:157] Top shape: 24 512 5 5 (307200)
I1102 19:05:39.784461  2431 net.cpp:165] Memory required for data: 3856675264
I1102 19:05:39.784463  2431 layer_factory.hpp:77] Creating layer conv14_2_conv14_2/relu_0_split
I1102 19:05:39.784468  2431 net.cpp:100] Creating Layer conv14_2_conv14_2/relu_0_split
I1102 19:05:39.784487  2431 net.cpp:434] conv14_2_conv14_2/relu_0_split <- conv14_2
I1102 19:05:39.784492  2431 net.cpp:408] conv14_2_conv14_2/relu_0_split -> conv14_2_conv14_2/relu_0_split_0
I1102 19:05:39.784497  2431 net.cpp:408] conv14_2_conv14_2/relu_0_split -> conv14_2_conv14_2/relu_0_split_1
I1102 19:05:39.784502  2431 net.cpp:408] conv14_2_conv14_2/relu_0_split -> conv14_2_conv14_2/relu_0_split_2
I1102 19:05:39.784507  2431 net.cpp:408] conv14_2_conv14_2/relu_0_split -> conv14_2_conv14_2/relu_0_split_3
I1102 19:05:39.784581  2431 net.cpp:150] Setting up conv14_2_conv14_2/relu_0_split
I1102 19:05:39.784588  2431 net.cpp:157] Top shape: 24 512 5 5 (307200)
I1102 19:05:39.784593  2431 net.cpp:157] Top shape: 24 512 5 5 (307200)
I1102 19:05:39.784596  2431 net.cpp:157] Top shape: 24 512 5 5 (307200)
I1102 19:05:39.784600  2431 net.cpp:157] Top shape: 24 512 5 5 (307200)
I1102 19:05:39.784602  2431 net.cpp:165] Memory required for data: 3861590464
I1102 19:05:39.784605  2431 layer_factory.hpp:77] Creating layer conv15_1
I1102 19:05:39.784612  2431 net.cpp:100] Creating Layer conv15_1
I1102 19:05:39.784615  2431 net.cpp:434] conv15_1 <- conv14_2_conv14_2/relu_0_split_0
I1102 19:05:39.784621  2431 net.cpp:408] conv15_1 -> conv15_1
I1102 19:05:39.786792  2431 net.cpp:150] Setting up conv15_1
I1102 19:05:39.786800  2431 net.cpp:157] Top shape: 24 128 5 5 (76800)
I1102 19:05:39.786804  2431 net.cpp:165] Memory required for data: 3861897664
I1102 19:05:39.786808  2431 layer_factory.hpp:77] Creating layer conv15_1/bn
I1102 19:05:39.786828  2431 net.cpp:100] Creating Layer conv15_1/bn
I1102 19:05:39.786833  2431 net.cpp:434] conv15_1/bn <- conv15_1
I1102 19:05:39.786836  2431 net.cpp:395] conv15_1/bn -> conv15_1 (in-place)
I1102 19:05:39.787009  2431 net.cpp:150] Setting up conv15_1/bn
I1102 19:05:39.787014  2431 net.cpp:157] Top shape: 24 128 5 5 (76800)
I1102 19:05:39.787017  2431 net.cpp:165] Memory required for data: 3862204864
I1102 19:05:39.787022  2431 layer_factory.hpp:77] Creating layer conv15_1/scale
I1102 19:05:39.787042  2431 net.cpp:100] Creating Layer conv15_1/scale
I1102 19:05:39.787045  2431 net.cpp:434] conv15_1/scale <- conv15_1
I1102 19:05:39.787050  2431 net.cpp:395] conv15_1/scale -> conv15_1 (in-place)
I1102 19:05:39.787092  2431 layer_factory.hpp:77] Creating layer conv15_1/scale
I1102 19:05:39.787222  2431 net.cpp:150] Setting up conv15_1/scale
I1102 19:05:39.787227  2431 net.cpp:157] Top shape: 24 128 5 5 (76800)
I1102 19:05:39.787230  2431 net.cpp:165] Memory required for data: 3862512064
I1102 19:05:39.787235  2431 layer_factory.hpp:77] Creating layer conv15_1/relu
I1102 19:05:39.787240  2431 net.cpp:100] Creating Layer conv15_1/relu
I1102 19:05:39.787258  2431 net.cpp:434] conv15_1/relu <- conv15_1
I1102 19:05:39.787261  2431 net.cpp:395] conv15_1/relu -> conv15_1 (in-place)
I1102 19:05:39.787391  2431 net.cpp:150] Setting up conv15_1/relu
I1102 19:05:39.787405  2431 net.cpp:157] Top shape: 24 128 5 5 (76800)
I1102 19:05:39.787407  2431 net.cpp:165] Memory required for data: 3862819264
I1102 19:05:39.787410  2431 layer_factory.hpp:77] Creating layer conv15_2
I1102 19:05:39.787432  2431 net.cpp:100] Creating Layer conv15_2
I1102 19:05:39.787436  2431 net.cpp:434] conv15_2 <- conv15_1
I1102 19:05:39.787441  2431 net.cpp:408] conv15_2 -> conv15_2
I1102 19:05:39.803395  2431 net.cpp:150] Setting up conv15_2
I1102 19:05:39.803424  2431 net.cpp:157] Top shape: 24 256 3 3 (55296)
I1102 19:05:39.803431  2431 net.cpp:165] Memory required for data: 3863040448
I1102 19:05:39.803439  2431 layer_factory.hpp:77] Creating layer conv15_2/bn
I1102 19:05:39.803452  2431 net.cpp:100] Creating Layer conv15_2/bn
I1102 19:05:39.803460  2431 net.cpp:434] conv15_2/bn <- conv15_2
I1102 19:05:39.803467  2431 net.cpp:395] conv15_2/bn -> conv15_2 (in-place)
I1102 19:05:39.803681  2431 net.cpp:150] Setting up conv15_2/bn
I1102 19:05:39.803689  2431 net.cpp:157] Top shape: 24 256 3 3 (55296)
I1102 19:05:39.803694  2431 net.cpp:165] Memory required for data: 3863261632
I1102 19:05:39.803704  2431 layer_factory.hpp:77] Creating layer conv15_2/scale
I1102 19:05:39.803714  2431 net.cpp:100] Creating Layer conv15_2/scale
I1102 19:05:39.803717  2431 net.cpp:434] conv15_2/scale <- conv15_2
I1102 19:05:39.803725  2431 net.cpp:395] conv15_2/scale -> conv15_2 (in-place)
I1102 19:05:39.803771  2431 layer_factory.hpp:77] Creating layer conv15_2/scale
I1102 19:05:39.803886  2431 net.cpp:150] Setting up conv15_2/scale
I1102 19:05:39.803894  2431 net.cpp:157] Top shape: 24 256 3 3 (55296)
I1102 19:05:39.803897  2431 net.cpp:165] Memory required for data: 3863482816
I1102 19:05:39.803905  2431 layer_factory.hpp:77] Creating layer conv15_2/relu
I1102 19:05:39.803928  2431 net.cpp:100] Creating Layer conv15_2/relu
I1102 19:05:39.803934  2431 net.cpp:434] conv15_2/relu <- conv15_2
I1102 19:05:39.803941  2431 net.cpp:395] conv15_2/relu -> conv15_2 (in-place)
I1102 19:05:39.812198  2431 net.cpp:150] Setting up conv15_2/relu
I1102 19:05:39.812216  2431 net.cpp:157] Top shape: 24 256 3 3 (55296)
I1102 19:05:39.812219  2431 net.cpp:165] Memory required for data: 3863704000
I1102 19:05:39.812238  2431 layer_factory.hpp:77] Creating layer conv15_2_conv15_2/relu_0_split
I1102 19:05:39.812247  2431 net.cpp:100] Creating Layer conv15_2_conv15_2/relu_0_split
I1102 19:05:39.812250  2431 net.cpp:434] conv15_2_conv15_2/relu_0_split <- conv15_2
I1102 19:05:39.812256  2431 net.cpp:408] conv15_2_conv15_2/relu_0_split -> conv15_2_conv15_2/relu_0_split_0
I1102 19:05:39.812264  2431 net.cpp:408] conv15_2_conv15_2/relu_0_split -> conv15_2_conv15_2/relu_0_split_1
I1102 19:05:39.812270  2431 net.cpp:408] conv15_2_conv15_2/relu_0_split -> conv15_2_conv15_2/relu_0_split_2
I1102 19:05:39.812275  2431 net.cpp:408] conv15_2_conv15_2/relu_0_split -> conv15_2_conv15_2/relu_0_split_3
I1102 19:05:39.812379  2431 net.cpp:150] Setting up conv15_2_conv15_2/relu_0_split
I1102 19:05:39.812386  2431 net.cpp:157] Top shape: 24 256 3 3 (55296)
I1102 19:05:39.812389  2431 net.cpp:157] Top shape: 24 256 3 3 (55296)
I1102 19:05:39.812392  2431 net.cpp:157] Top shape: 24 256 3 3 (55296)
I1102 19:05:39.812397  2431 net.cpp:157] Top shape: 24 256 3 3 (55296)
I1102 19:05:39.812398  2431 net.cpp:165] Memory required for data: 3864588736
I1102 19:05:39.812402  2431 layer_factory.hpp:77] Creating layer conv16_1
I1102 19:05:39.812410  2431 net.cpp:100] Creating Layer conv16_1
I1102 19:05:39.812414  2431 net.cpp:434] conv16_1 <- conv15_2_conv15_2/relu_0_split_0
I1102 19:05:39.812432  2431 net.cpp:408] conv16_1 -> conv16_1
I1102 19:05:39.814033  2431 net.cpp:150] Setting up conv16_1
I1102 19:05:39.814043  2431 net.cpp:157] Top shape: 24 128 3 3 (27648)
I1102 19:05:39.814046  2431 net.cpp:165] Memory required for data: 3864699328
I1102 19:05:39.814051  2431 layer_factory.hpp:77] Creating layer conv16_1/bn
I1102 19:05:39.814056  2431 net.cpp:100] Creating Layer conv16_1/bn
I1102 19:05:39.814074  2431 net.cpp:434] conv16_1/bn <- conv16_1
I1102 19:05:39.814090  2431 net.cpp:395] conv16_1/bn -> conv16_1 (in-place)
I1102 19:05:39.814311  2431 net.cpp:150] Setting up conv16_1/bn
I1102 19:05:39.814316  2431 net.cpp:157] Top shape: 24 128 3 3 (27648)
I1102 19:05:39.814319  2431 net.cpp:165] Memory required for data: 3864809920
I1102 19:05:39.814324  2431 layer_factory.hpp:77] Creating layer conv16_1/scale
I1102 19:05:39.814344  2431 net.cpp:100] Creating Layer conv16_1/scale
I1102 19:05:39.814348  2431 net.cpp:434] conv16_1/scale <- conv16_1
I1102 19:05:39.814352  2431 net.cpp:395] conv16_1/scale -> conv16_1 (in-place)
I1102 19:05:39.814409  2431 layer_factory.hpp:77] Creating layer conv16_1/scale
I1102 19:05:39.814532  2431 net.cpp:150] Setting up conv16_1/scale
I1102 19:05:39.814537  2431 net.cpp:157] Top shape: 24 128 3 3 (27648)
I1102 19:05:39.814539  2431 net.cpp:165] Memory required for data: 3864920512
I1102 19:05:39.814543  2431 layer_factory.hpp:77] Creating layer conv16_1/relu
I1102 19:05:39.814561  2431 net.cpp:100] Creating Layer conv16_1/relu
I1102 19:05:39.814564  2431 net.cpp:434] conv16_1/relu <- conv16_1
I1102 19:05:39.814568  2431 net.cpp:395] conv16_1/relu -> conv16_1 (in-place)
I1102 19:05:39.814772  2431 net.cpp:150] Setting up conv16_1/relu
I1102 19:05:39.814779  2431 net.cpp:157] Top shape: 24 128 3 3 (27648)
I1102 19:05:39.814782  2431 net.cpp:165] Memory required for data: 3865031104
I1102 19:05:39.814785  2431 layer_factory.hpp:77] Creating layer conv16_2
I1102 19:05:39.814806  2431 net.cpp:100] Creating Layer conv16_2
I1102 19:05:39.814810  2431 net.cpp:434] conv16_2 <- conv16_1
I1102 19:05:39.814815  2431 net.cpp:408] conv16_2 -> conv16_2
I1102 19:05:39.836602  2431 net.cpp:150] Setting up conv16_2
I1102 19:05:39.836619  2431 net.cpp:157] Top shape: 24 256 2 2 (24576)
I1102 19:05:39.836622  2431 net.cpp:165] Memory required for data: 3865129408
I1102 19:05:39.836628  2431 layer_factory.hpp:77] Creating layer conv16_2/bn
I1102 19:05:39.836635  2431 net.cpp:100] Creating Layer conv16_2/bn
I1102 19:05:39.836640  2431 net.cpp:434] conv16_2/bn <- conv16_2
I1102 19:05:39.836647  2431 net.cpp:395] conv16_2/bn -> conv16_2 (in-place)
I1102 19:05:39.836820  2431 net.cpp:150] Setting up conv16_2/bn
I1102 19:05:39.836827  2431 net.cpp:157] Top shape: 24 256 2 2 (24576)
I1102 19:05:39.836829  2431 net.cpp:165] Memory required for data: 3865227712
I1102 19:05:39.836835  2431 layer_factory.hpp:77] Creating layer conv16_2/scale
I1102 19:05:39.836841  2431 net.cpp:100] Creating Layer conv16_2/scale
I1102 19:05:39.836844  2431 net.cpp:434] conv16_2/scale <- conv16_2
I1102 19:05:39.836849  2431 net.cpp:395] conv16_2/scale -> conv16_2 (in-place)
I1102 19:05:39.836879  2431 layer_factory.hpp:77] Creating layer conv16_2/scale
I1102 19:05:39.836956  2431 net.cpp:150] Setting up conv16_2/scale
I1102 19:05:39.836961  2431 net.cpp:157] Top shape: 24 256 2 2 (24576)
I1102 19:05:39.836964  2431 net.cpp:165] Memory required for data: 3865326016
I1102 19:05:39.836968  2431 layer_factory.hpp:77] Creating layer conv16_2/relu
I1102 19:05:39.836972  2431 net.cpp:100] Creating Layer conv16_2/relu
I1102 19:05:39.836975  2431 net.cpp:434] conv16_2/relu <- conv16_2
I1102 19:05:39.836980  2431 net.cpp:395] conv16_2/relu -> conv16_2 (in-place)
I1102 19:05:39.837461  2431 net.cpp:150] Setting up conv16_2/relu
I1102 19:05:39.837471  2431 net.cpp:157] Top shape: 24 256 2 2 (24576)
I1102 19:05:39.837473  2431 net.cpp:165] Memory required for data: 3865424320
I1102 19:05:39.837477  2431 layer_factory.hpp:77] Creating layer conv16_2_conv16_2/relu_0_split
I1102 19:05:39.837481  2431 net.cpp:100] Creating Layer conv16_2_conv16_2/relu_0_split
I1102 19:05:39.837486  2431 net.cpp:434] conv16_2_conv16_2/relu_0_split <- conv16_2
I1102 19:05:39.837491  2431 net.cpp:408] conv16_2_conv16_2/relu_0_split -> conv16_2_conv16_2/relu_0_split_0
I1102 19:05:39.837496  2431 net.cpp:408] conv16_2_conv16_2/relu_0_split -> conv16_2_conv16_2/relu_0_split_1
I1102 19:05:39.837501  2431 net.cpp:408] conv16_2_conv16_2/relu_0_split -> conv16_2_conv16_2/relu_0_split_2
I1102 19:05:39.837505  2431 net.cpp:408] conv16_2_conv16_2/relu_0_split -> conv16_2_conv16_2/relu_0_split_3
I1102 19:05:39.837595  2431 net.cpp:150] Setting up conv16_2_conv16_2/relu_0_split
I1102 19:05:39.837601  2431 net.cpp:157] Top shape: 24 256 2 2 (24576)
I1102 19:05:39.837604  2431 net.cpp:157] Top shape: 24 256 2 2 (24576)
I1102 19:05:39.837608  2431 net.cpp:157] Top shape: 24 256 2 2 (24576)
I1102 19:05:39.837612  2431 net.cpp:157] Top shape: 24 256 2 2 (24576)
I1102 19:05:39.837615  2431 net.cpp:165] Memory required for data: 3865817536
I1102 19:05:39.837617  2431 layer_factory.hpp:77] Creating layer conv17_1
I1102 19:05:39.837626  2431 net.cpp:100] Creating Layer conv17_1
I1102 19:05:39.837644  2431 net.cpp:434] conv17_1 <- conv16_2_conv16_2/relu_0_split_0
I1102 19:05:39.837649  2431 net.cpp:408] conv17_1 -> conv17_1
I1102 19:05:39.838505  2431 net.cpp:150] Setting up conv17_1
I1102 19:05:39.838513  2431 net.cpp:157] Top shape: 24 64 2 2 (6144)
I1102 19:05:39.838516  2431 net.cpp:165] Memory required for data: 3865842112
I1102 19:05:39.838521  2431 layer_factory.hpp:77] Creating layer conv17_1/bn
I1102 19:05:39.838541  2431 net.cpp:100] Creating Layer conv17_1/bn
I1102 19:05:39.838544  2431 net.cpp:434] conv17_1/bn <- conv17_1
I1102 19:05:39.838548  2431 net.cpp:395] conv17_1/bn -> conv17_1 (in-place)
I1102 19:05:39.838706  2431 net.cpp:150] Setting up conv17_1/bn
I1102 19:05:39.838711  2431 net.cpp:157] Top shape: 24 64 2 2 (6144)
I1102 19:05:39.838714  2431 net.cpp:165] Memory required for data: 3865866688
I1102 19:05:39.838719  2431 layer_factory.hpp:77] Creating layer conv17_1/scale
I1102 19:05:39.838738  2431 net.cpp:100] Creating Layer conv17_1/scale
I1102 19:05:39.838742  2431 net.cpp:434] conv17_1/scale <- conv17_1
I1102 19:05:39.838747  2431 net.cpp:395] conv17_1/scale -> conv17_1 (in-place)
I1102 19:05:39.838778  2431 layer_factory.hpp:77] Creating layer conv17_1/scale
I1102 19:05:39.838863  2431 net.cpp:150] Setting up conv17_1/scale
I1102 19:05:39.838870  2431 net.cpp:157] Top shape: 24 64 2 2 (6144)
I1102 19:05:39.838871  2431 net.cpp:165] Memory required for data: 3865891264
I1102 19:05:39.838876  2431 layer_factory.hpp:77] Creating layer conv17_1/relu
I1102 19:05:39.838881  2431 net.cpp:100] Creating Layer conv17_1/relu
I1102 19:05:39.838884  2431 net.cpp:434] conv17_1/relu <- conv17_1
I1102 19:05:39.838889  2431 net.cpp:395] conv17_1/relu -> conv17_1 (in-place)
I1102 19:05:39.839347  2431 net.cpp:150] Setting up conv17_1/relu
I1102 19:05:39.839357  2431 net.cpp:157] Top shape: 24 64 2 2 (6144)
I1102 19:05:39.839361  2431 net.cpp:165] Memory required for data: 3865915840
I1102 19:05:39.839365  2431 layer_factory.hpp:77] Creating layer conv17_2
I1102 19:05:39.839373  2431 net.cpp:100] Creating Layer conv17_2
I1102 19:05:39.839391  2431 net.cpp:434] conv17_2 <- conv17_1
I1102 19:05:39.839396  2431 net.cpp:408] conv17_2 -> conv17_2
I1102 19:05:39.846215  2431 net.cpp:150] Setting up conv17_2
I1102 19:05:39.846236  2431 net.cpp:157] Top shape: 24 128 1 1 (3072)
I1102 19:05:39.846240  2431 net.cpp:165] Memory required for data: 3865928128
I1102 19:05:39.846261  2431 layer_factory.hpp:77] Creating layer conv17_2/bn
I1102 19:05:39.846271  2431 net.cpp:100] Creating Layer conv17_2/bn
I1102 19:05:39.846278  2431 net.cpp:434] conv17_2/bn <- conv17_2
I1102 19:05:39.846297  2431 net.cpp:395] conv17_2/bn -> conv17_2 (in-place)
I1102 19:05:39.846459  2431 net.cpp:150] Setting up conv17_2/bn
I1102 19:05:39.846467  2431 net.cpp:157] Top shape: 24 128 1 1 (3072)
I1102 19:05:39.846469  2431 net.cpp:165] Memory required for data: 3865940416
I1102 19:05:39.846474  2431 layer_factory.hpp:77] Creating layer conv17_2/scale
I1102 19:05:39.846498  2431 net.cpp:100] Creating Layer conv17_2/scale
I1102 19:05:39.846500  2431 net.cpp:434] conv17_2/scale <- conv17_2
I1102 19:05:39.846504  2431 net.cpp:395] conv17_2/scale -> conv17_2 (in-place)
I1102 19:05:39.846537  2431 layer_factory.hpp:77] Creating layer conv17_2/scale
I1102 19:05:39.846657  2431 net.cpp:150] Setting up conv17_2/scale
I1102 19:05:39.846662  2431 net.cpp:157] Top shape: 24 128 1 1 (3072)
I1102 19:05:39.846675  2431 net.cpp:165] Memory required for data: 3865952704
I1102 19:05:39.846694  2431 layer_factory.hpp:77] Creating layer conv17_2/relu
I1102 19:05:39.846702  2431 net.cpp:100] Creating Layer conv17_2/relu
I1102 19:05:39.846719  2431 net.cpp:434] conv17_2/relu <- conv17_2
I1102 19:05:39.846724  2431 net.cpp:395] conv17_2/relu -> conv17_2 (in-place)
I1102 19:05:39.846853  2431 net.cpp:150] Setting up conv17_2/relu
I1102 19:05:39.846860  2431 net.cpp:157] Top shape: 24 128 1 1 (3072)
I1102 19:05:39.846863  2431 net.cpp:165] Memory required for data: 3865964992
I1102 19:05:39.846866  2431 layer_factory.hpp:77] Creating layer conv17_2_conv17_2/relu_0_split
I1102 19:05:39.846871  2431 net.cpp:100] Creating Layer conv17_2_conv17_2/relu_0_split
I1102 19:05:39.846875  2431 net.cpp:434] conv17_2_conv17_2/relu_0_split <- conv17_2
I1102 19:05:39.846879  2431 net.cpp:408] conv17_2_conv17_2/relu_0_split -> conv17_2_conv17_2/relu_0_split_0
I1102 19:05:39.846906  2431 net.cpp:408] conv17_2_conv17_2/relu_0_split -> conv17_2_conv17_2/relu_0_split_1
I1102 19:05:39.846911  2431 net.cpp:408] conv17_2_conv17_2/relu_0_split -> conv17_2_conv17_2/relu_0_split_2
I1102 19:05:39.846981  2431 net.cpp:150] Setting up conv17_2_conv17_2/relu_0_split
I1102 19:05:39.846987  2431 net.cpp:157] Top shape: 24 128 1 1 (3072)
I1102 19:05:39.846990  2431 net.cpp:157] Top shape: 24 128 1 1 (3072)
I1102 19:05:39.846993  2431 net.cpp:157] Top shape: 24 128 1 1 (3072)
I1102 19:05:39.847008  2431 net.cpp:165] Memory required for data: 3866001856
I1102 19:05:39.847012  2431 layer_factory.hpp:77] Creating layer conv11_mbox_loc
I1102 19:05:39.847033  2431 net.cpp:100] Creating Layer conv11_mbox_loc
I1102 19:05:39.847036  2431 net.cpp:434] conv11_mbox_loc <- conv11_conv11/relu_0_split_1
I1102 19:05:39.847057  2431 net.cpp:408] conv11_mbox_loc -> conv11_mbox_loc
I1102 19:05:39.851507  2431 net.cpp:150] Setting up conv11_mbox_loc
I1102 19:05:39.851532  2431 net.cpp:157] Top shape: 24 12 19 19 (103968)
I1102 19:05:39.851552  2431 net.cpp:165] Memory required for data: 3866417728
I1102 19:05:39.851562  2431 layer_factory.hpp:77] Creating layer conv11_mbox_loc_perm
I1102 19:05:39.851577  2431 net.cpp:100] Creating Layer conv11_mbox_loc_perm
I1102 19:05:39.851583  2431 net.cpp:434] conv11_mbox_loc_perm <- conv11_mbox_loc
I1102 19:05:39.851593  2431 net.cpp:408] conv11_mbox_loc_perm -> conv11_mbox_loc_perm
I1102 19:05:39.851707  2431 net.cpp:150] Setting up conv11_mbox_loc_perm
I1102 19:05:39.851716  2431 net.cpp:157] Top shape: 24 19 19 12 (103968)
I1102 19:05:39.851719  2431 net.cpp:165] Memory required for data: 3866833600
I1102 19:05:39.851724  2431 layer_factory.hpp:77] Creating layer conv11_mbox_loc_flat
I1102 19:05:39.851732  2431 net.cpp:100] Creating Layer conv11_mbox_loc_flat
I1102 19:05:39.851737  2431 net.cpp:434] conv11_mbox_loc_flat <- conv11_mbox_loc_perm
I1102 19:05:39.851742  2431 net.cpp:408] conv11_mbox_loc_flat -> conv11_mbox_loc_flat
I1102 19:05:39.851770  2431 net.cpp:150] Setting up conv11_mbox_loc_flat
I1102 19:05:39.851778  2431 net.cpp:157] Top shape: 24 4332 (103968)
I1102 19:05:39.851781  2431 net.cpp:165] Memory required for data: 3867249472
I1102 19:05:39.851786  2431 layer_factory.hpp:77] Creating layer conv11_mbox_conf_new
I1102 19:05:39.851799  2431 net.cpp:100] Creating Layer conv11_mbox_conf_new
I1102 19:05:39.851804  2431 net.cpp:434] conv11_mbox_conf_new <- conv11_conv11/relu_0_split_2
I1102 19:05:39.851812  2431 net.cpp:408] conv11_mbox_conf_new -> conv11_mbox_conf
I1102 19:05:39.860602  2431 net.cpp:150] Setting up conv11_mbox_conf_new
I1102 19:05:39.860621  2431 net.cpp:157] Top shape: 24 63 19 19 (545832)
I1102 19:05:39.860625  2431 net.cpp:165] Memory required for data: 3869432800
I1102 19:05:39.860630  2431 layer_factory.hpp:77] Creating layer conv11_mbox_conf_perm
I1102 19:05:39.860654  2431 net.cpp:100] Creating Layer conv11_mbox_conf_perm
I1102 19:05:39.860659  2431 net.cpp:434] conv11_mbox_conf_perm <- conv11_mbox_conf
I1102 19:05:39.860679  2431 net.cpp:408] conv11_mbox_conf_perm -> conv11_mbox_conf_perm
I1102 19:05:39.860837  2431 net.cpp:150] Setting up conv11_mbox_conf_perm
I1102 19:05:39.860846  2431 net.cpp:157] Top shape: 24 19 19 63 (545832)
I1102 19:05:39.860849  2431 net.cpp:165] Memory required for data: 3871616128
I1102 19:05:39.860852  2431 layer_factory.hpp:77] Creating layer conv11_mbox_conf_flat
I1102 19:05:39.860857  2431 net.cpp:100] Creating Layer conv11_mbox_conf_flat
I1102 19:05:39.860860  2431 net.cpp:434] conv11_mbox_conf_flat <- conv11_mbox_conf_perm
I1102 19:05:39.860879  2431 net.cpp:408] conv11_mbox_conf_flat -> conv11_mbox_conf_flat
I1102 19:05:39.860910  2431 net.cpp:150] Setting up conv11_mbox_conf_flat
I1102 19:05:39.860915  2431 net.cpp:157] Top shape: 24 22743 (545832)
I1102 19:05:39.860918  2431 net.cpp:165] Memory required for data: 3873799456
I1102 19:05:39.860921  2431 layer_factory.hpp:77] Creating layer conv11_mbox_priorbox
I1102 19:05:39.860944  2431 net.cpp:100] Creating Layer conv11_mbox_priorbox
I1102 19:05:39.860949  2431 net.cpp:434] conv11_mbox_priorbox <- conv11_conv11/relu_0_split_3
I1102 19:05:39.860966  2431 net.cpp:434] conv11_mbox_priorbox <- data_data_0_split_1
I1102 19:05:39.860970  2431 net.cpp:408] conv11_mbox_priorbox -> conv11_mbox_priorbox
I1102 19:05:39.861011  2431 net.cpp:150] Setting up conv11_mbox_priorbox
I1102 19:05:39.861016  2431 net.cpp:157] Top shape: 1 2 4332 (8664)
I1102 19:05:39.861018  2431 net.cpp:165] Memory required for data: 3873834112
I1102 19:05:39.861021  2431 layer_factory.hpp:77] Creating layer conv13_mbox_loc
I1102 19:05:39.861043  2431 net.cpp:100] Creating Layer conv13_mbox_loc
I1102 19:05:39.861047  2431 net.cpp:434] conv13_mbox_loc <- conv13_conv13/relu_0_split_1
I1102 19:05:39.861068  2431 net.cpp:408] conv13_mbox_loc -> conv13_mbox_loc
I1102 19:05:39.862448  2431 net.cpp:150] Setting up conv13_mbox_loc
I1102 19:05:39.862457  2431 net.cpp:157] Top shape: 24 24 10 10 (57600)
I1102 19:05:39.862462  2431 net.cpp:165] Memory required for data: 3874064512
I1102 19:05:39.862467  2431 layer_factory.hpp:77] Creating layer conv13_mbox_loc_perm
I1102 19:05:39.862485  2431 net.cpp:100] Creating Layer conv13_mbox_loc_perm
I1102 19:05:39.862489  2431 net.cpp:434] conv13_mbox_loc_perm <- conv13_mbox_loc
I1102 19:05:39.862495  2431 net.cpp:408] conv13_mbox_loc_perm -> conv13_mbox_loc_perm
I1102 19:05:39.862607  2431 net.cpp:150] Setting up conv13_mbox_loc_perm
I1102 19:05:39.862613  2431 net.cpp:157] Top shape: 24 10 10 24 (57600)
I1102 19:05:39.862615  2431 net.cpp:165] Memory required for data: 3874294912
I1102 19:05:39.862618  2431 layer_factory.hpp:77] Creating layer conv13_mbox_loc_flat
I1102 19:05:39.862622  2431 net.cpp:100] Creating Layer conv13_mbox_loc_flat
I1102 19:05:39.862640  2431 net.cpp:434] conv13_mbox_loc_flat <- conv13_mbox_loc_perm
I1102 19:05:39.862645  2431 net.cpp:408] conv13_mbox_loc_flat -> conv13_mbox_loc_flat
I1102 19:05:39.862661  2431 net.cpp:150] Setting up conv13_mbox_loc_flat
I1102 19:05:39.862679  2431 net.cpp:157] Top shape: 24 2400 (57600)
I1102 19:05:39.862682  2431 net.cpp:165] Memory required for data: 3874525312
I1102 19:05:39.862685  2431 layer_factory.hpp:77] Creating layer conv13_mbox_conf_new
I1102 19:05:39.862705  2431 net.cpp:100] Creating Layer conv13_mbox_conf_new
I1102 19:05:39.862709  2431 net.cpp:434] conv13_mbox_conf_new <- conv13_conv13/relu_0_split_2
I1102 19:05:39.862715  2431 net.cpp:408] conv13_mbox_conf_new -> conv13_mbox_conf
I1102 19:05:39.869833  2431 net.cpp:150] Setting up conv13_mbox_conf_new
I1102 19:05:39.869853  2431 net.cpp:157] Top shape: 24 126 10 10 (302400)
I1102 19:05:39.869858  2431 net.cpp:165] Memory required for data: 3875734912
I1102 19:05:39.869863  2431 layer_factory.hpp:77] Creating layer conv13_mbox_conf_perm
I1102 19:05:39.869871  2431 net.cpp:100] Creating Layer conv13_mbox_conf_perm
I1102 19:05:39.869890  2431 net.cpp:434] conv13_mbox_conf_perm <- conv13_mbox_conf
I1102 19:05:39.869896  2431 net.cpp:408] conv13_mbox_conf_perm -> conv13_mbox_conf_perm
I1102 19:05:39.870015  2431 net.cpp:150] Setting up conv13_mbox_conf_perm
I1102 19:05:39.870020  2431 net.cpp:157] Top shape: 24 10 10 126 (302400)
I1102 19:05:39.870048  2431 net.cpp:165] Memory required for data: 3876944512
I1102 19:05:39.870051  2431 layer_factory.hpp:77] Creating layer conv13_mbox_conf_flat
I1102 19:05:39.870057  2431 net.cpp:100] Creating Layer conv13_mbox_conf_flat
I1102 19:05:39.870060  2431 net.cpp:434] conv13_mbox_conf_flat <- conv13_mbox_conf_perm
I1102 19:05:39.870065  2431 net.cpp:408] conv13_mbox_conf_flat -> conv13_mbox_conf_flat
I1102 19:05:39.870084  2431 net.cpp:150] Setting up conv13_mbox_conf_flat
I1102 19:05:39.870102  2431 net.cpp:157] Top shape: 24 12600 (302400)
I1102 19:05:39.870105  2431 net.cpp:165] Memory required for data: 3878154112
I1102 19:05:39.870107  2431 layer_factory.hpp:77] Creating layer conv13_mbox_priorbox
I1102 19:05:39.870112  2431 net.cpp:100] Creating Layer conv13_mbox_priorbox
I1102 19:05:39.870131  2431 net.cpp:434] conv13_mbox_priorbox <- conv13_conv13/relu_0_split_3
I1102 19:05:39.870136  2431 net.cpp:434] conv13_mbox_priorbox <- data_data_0_split_2
I1102 19:05:39.870141  2431 net.cpp:408] conv13_mbox_priorbox -> conv13_mbox_priorbox
I1102 19:05:39.870159  2431 net.cpp:150] Setting up conv13_mbox_priorbox
I1102 19:05:39.870178  2431 net.cpp:157] Top shape: 1 2 2400 (4800)
I1102 19:05:39.870182  2431 net.cpp:165] Memory required for data: 3878173312
I1102 19:05:39.870184  2431 layer_factory.hpp:77] Creating layer conv14_2_mbox_loc
I1102 19:05:39.870190  2431 net.cpp:100] Creating Layer conv14_2_mbox_loc
I1102 19:05:39.870208  2431 net.cpp:434] conv14_2_mbox_loc <- conv14_2_conv14_2/relu_0_split_1
I1102 19:05:39.870214  2431 net.cpp:408] conv14_2_mbox_loc -> conv14_2_mbox_loc
I1102 19:05:39.871491  2431 net.cpp:150] Setting up conv14_2_mbox_loc
I1102 19:05:39.871501  2431 net.cpp:157] Top shape: 24 24 5 5 (14400)
I1102 19:05:39.871505  2431 net.cpp:165] Memory required for data: 3878230912
I1102 19:05:39.871510  2431 layer_factory.hpp:77] Creating layer conv14_2_mbox_loc_perm
I1102 19:05:39.871529  2431 net.cpp:100] Creating Layer conv14_2_mbox_loc_perm
I1102 19:05:39.871533  2431 net.cpp:434] conv14_2_mbox_loc_perm <- conv14_2_mbox_loc
I1102 19:05:39.871538  2431 net.cpp:408] conv14_2_mbox_loc_perm -> conv14_2_mbox_loc_perm
I1102 19:05:39.871677  2431 net.cpp:150] Setting up conv14_2_mbox_loc_perm
I1102 19:05:39.871685  2431 net.cpp:157] Top shape: 24 5 5 24 (14400)
I1102 19:05:39.871687  2431 net.cpp:165] Memory required for data: 3878288512
I1102 19:05:39.871690  2431 layer_factory.hpp:77] Creating layer conv14_2_mbox_loc_flat
I1102 19:05:39.871695  2431 net.cpp:100] Creating Layer conv14_2_mbox_loc_flat
I1102 19:05:39.871711  2431 net.cpp:434] conv14_2_mbox_loc_flat <- conv14_2_mbox_loc_perm
I1102 19:05:39.871716  2431 net.cpp:408] conv14_2_mbox_loc_flat -> conv14_2_mbox_loc_flat
I1102 19:05:39.871732  2431 net.cpp:150] Setting up conv14_2_mbox_loc_flat
I1102 19:05:39.871738  2431 net.cpp:157] Top shape: 24 600 (14400)
I1102 19:05:39.871742  2431 net.cpp:165] Memory required for data: 3878346112
I1102 19:05:39.871743  2431 layer_factory.hpp:77] Creating layer conv14_2_mbox_conf_new
I1102 19:05:39.871763  2431 net.cpp:100] Creating Layer conv14_2_mbox_conf_new
I1102 19:05:39.871767  2431 net.cpp:434] conv14_2_mbox_conf_new <- conv14_2_conv14_2/relu_0_split_2
I1102 19:05:39.871773  2431 net.cpp:408] conv14_2_mbox_conf_new -> conv14_2_mbox_conf
I1102 19:05:39.878455  2431 net.cpp:150] Setting up conv14_2_mbox_conf_new
I1102 19:05:39.878475  2431 net.cpp:157] Top shape: 24 126 5 5 (75600)
I1102 19:05:39.878479  2431 net.cpp:165] Memory required for data: 3878648512
I1102 19:05:39.878500  2431 layer_factory.hpp:77] Creating layer conv14_2_mbox_conf_perm
I1102 19:05:39.878511  2431 net.cpp:100] Creating Layer conv14_2_mbox_conf_perm
I1102 19:05:39.878517  2431 net.cpp:434] conv14_2_mbox_conf_perm <- conv14_2_mbox_conf
I1102 19:05:39.878523  2431 net.cpp:408] conv14_2_mbox_conf_perm -> conv14_2_mbox_conf_perm
I1102 19:05:39.878629  2431 net.cpp:150] Setting up conv14_2_mbox_conf_perm
I1102 19:05:39.878635  2431 net.cpp:157] Top shape: 24 5 5 126 (75600)
I1102 19:05:39.878638  2431 net.cpp:165] Memory required for data: 3878950912
I1102 19:05:39.878666  2431 layer_factory.hpp:77] Creating layer conv14_2_mbox_conf_flat
I1102 19:05:39.878686  2431 net.cpp:100] Creating Layer conv14_2_mbox_conf_flat
I1102 19:05:39.878690  2431 net.cpp:434] conv14_2_mbox_conf_flat <- conv14_2_mbox_conf_perm
I1102 19:05:39.878695  2431 net.cpp:408] conv14_2_mbox_conf_flat -> conv14_2_mbox_conf_flat
I1102 19:05:39.878713  2431 net.cpp:150] Setting up conv14_2_mbox_conf_flat
I1102 19:05:39.878720  2431 net.cpp:157] Top shape: 24 3150 (75600)
I1102 19:05:39.878721  2431 net.cpp:165] Memory required for data: 3879253312
I1102 19:05:39.878724  2431 layer_factory.hpp:77] Creating layer conv14_2_mbox_priorbox
I1102 19:05:39.878742  2431 net.cpp:100] Creating Layer conv14_2_mbox_priorbox
I1102 19:05:39.878747  2431 net.cpp:434] conv14_2_mbox_priorbox <- conv14_2_conv14_2/relu_0_split_3
I1102 19:05:39.878764  2431 net.cpp:434] conv14_2_mbox_priorbox <- data_data_0_split_3
I1102 19:05:39.878769  2431 net.cpp:408] conv14_2_mbox_priorbox -> conv14_2_mbox_priorbox
I1102 19:05:39.878805  2431 net.cpp:150] Setting up conv14_2_mbox_priorbox
I1102 19:05:39.878811  2431 net.cpp:157] Top shape: 1 2 600 (1200)
I1102 19:05:39.878814  2431 net.cpp:165] Memory required for data: 3879258112
I1102 19:05:39.878818  2431 layer_factory.hpp:77] Creating layer conv15_2_mbox_loc
I1102 19:05:39.878839  2431 net.cpp:100] Creating Layer conv15_2_mbox_loc
I1102 19:05:39.878842  2431 net.cpp:434] conv15_2_mbox_loc <- conv15_2_conv15_2/relu_0_split_1
I1102 19:05:39.878849  2431 net.cpp:408] conv15_2_mbox_loc -> conv15_2_mbox_loc
I1102 19:05:39.879904  2431 net.cpp:150] Setting up conv15_2_mbox_loc
I1102 19:05:39.879914  2431 net.cpp:157] Top shape: 24 24 3 3 (5184)
I1102 19:05:39.879916  2431 net.cpp:165] Memory required for data: 3879278848
I1102 19:05:39.879921  2431 layer_factory.hpp:77] Creating layer conv15_2_mbox_loc_perm
I1102 19:05:39.879941  2431 net.cpp:100] Creating Layer conv15_2_mbox_loc_perm
I1102 19:05:39.879945  2431 net.cpp:434] conv15_2_mbox_loc_perm <- conv15_2_mbox_loc
I1102 19:05:39.879951  2431 net.cpp:408] conv15_2_mbox_loc_perm -> conv15_2_mbox_loc_perm
I1102 19:05:39.884165  2431 net.cpp:150] Setting up conv15_2_mbox_loc_perm
I1102 19:05:39.884198  2431 net.cpp:157] Top shape: 24 3 3 24 (5184)
I1102 19:05:39.884204  2431 net.cpp:165] Memory required for data: 3879299584
I1102 19:05:39.884210  2431 layer_factory.hpp:77] Creating layer conv15_2_mbox_loc_flat
I1102 19:05:39.884222  2431 net.cpp:100] Creating Layer conv15_2_mbox_loc_flat
I1102 19:05:39.884229  2431 net.cpp:434] conv15_2_mbox_loc_flat <- conv15_2_mbox_loc_perm
I1102 19:05:39.884239  2431 net.cpp:408] conv15_2_mbox_loc_flat -> conv15_2_mbox_loc_flat
I1102 19:05:39.884272  2431 net.cpp:150] Setting up conv15_2_mbox_loc_flat
I1102 19:05:39.884279  2431 net.cpp:157] Top shape: 24 216 (5184)
I1102 19:05:39.884284  2431 net.cpp:165] Memory required for data: 3879320320
I1102 19:05:39.884287  2431 layer_factory.hpp:77] Creating layer conv15_2_mbox_conf_new
I1102 19:05:39.884302  2431 net.cpp:100] Creating Layer conv15_2_mbox_conf_new
I1102 19:05:39.884307  2431 net.cpp:434] conv15_2_mbox_conf_new <- conv15_2_conv15_2/relu_0_split_2
I1102 19:05:39.884315  2431 net.cpp:408] conv15_2_mbox_conf_new -> conv15_2_mbox_conf
I1102 19:05:39.892508  2431 net.cpp:150] Setting up conv15_2_mbox_conf_new
I1102 19:05:39.892524  2431 net.cpp:157] Top shape: 24 126 3 3 (27216)
I1102 19:05:39.892526  2431 net.cpp:165] Memory required for data: 3879429184
I1102 19:05:39.892532  2431 layer_factory.hpp:77] Creating layer conv15_2_mbox_conf_perm
I1102 19:05:39.892540  2431 net.cpp:100] Creating Layer conv15_2_mbox_conf_perm
I1102 19:05:39.892545  2431 net.cpp:434] conv15_2_mbox_conf_perm <- conv15_2_mbox_conf
I1102 19:05:39.892565  2431 net.cpp:408] conv15_2_mbox_conf_perm -> conv15_2_mbox_conf_perm
I1102 19:05:39.892681  2431 net.cpp:150] Setting up conv15_2_mbox_conf_perm
I1102 19:05:39.892688  2431 net.cpp:157] Top shape: 24 3 3 126 (27216)
I1102 19:05:39.892691  2431 net.cpp:165] Memory required for data: 3879538048
I1102 19:05:39.892719  2431 layer_factory.hpp:77] Creating layer conv15_2_mbox_conf_flat
I1102 19:05:39.892736  2431 net.cpp:100] Creating Layer conv15_2_mbox_conf_flat
I1102 19:05:39.892740  2431 net.cpp:434] conv15_2_mbox_conf_flat <- conv15_2_mbox_conf_perm
I1102 19:05:39.892745  2431 net.cpp:408] conv15_2_mbox_conf_flat -> conv15_2_mbox_conf_flat
I1102 19:05:39.892763  2431 net.cpp:150] Setting up conv15_2_mbox_conf_flat
I1102 19:05:39.892782  2431 net.cpp:157] Top shape: 24 1134 (27216)
I1102 19:05:39.892784  2431 net.cpp:165] Memory required for data: 3879646912
I1102 19:05:39.892787  2431 layer_factory.hpp:77] Creating layer conv15_2_mbox_priorbox
I1102 19:05:39.892794  2431 net.cpp:100] Creating Layer conv15_2_mbox_priorbox
I1102 19:05:39.892813  2431 net.cpp:434] conv15_2_mbox_priorbox <- conv15_2_conv15_2/relu_0_split_3
I1102 19:05:39.892817  2431 net.cpp:434] conv15_2_mbox_priorbox <- data_data_0_split_4
I1102 19:05:39.892823  2431 net.cpp:408] conv15_2_mbox_priorbox -> conv15_2_mbox_priorbox
I1102 19:05:39.892855  2431 net.cpp:150] Setting up conv15_2_mbox_priorbox
I1102 19:05:39.892874  2431 net.cpp:157] Top shape: 1 2 216 (432)
I1102 19:05:39.892877  2431 net.cpp:165] Memory required for data: 3879648640
I1102 19:05:39.892879  2431 layer_factory.hpp:77] Creating layer conv16_2_mbox_loc
I1102 19:05:39.892902  2431 net.cpp:100] Creating Layer conv16_2_mbox_loc
I1102 19:05:39.892906  2431 net.cpp:434] conv16_2_mbox_loc <- conv16_2_conv16_2/relu_0_split_1
I1102 19:05:39.892925  2431 net.cpp:408] conv16_2_mbox_loc -> conv16_2_mbox_loc
I1102 19:05:39.893966  2431 net.cpp:150] Setting up conv16_2_mbox_loc
I1102 19:05:39.893976  2431 net.cpp:157] Top shape: 24 24 2 2 (2304)
I1102 19:05:39.893980  2431 net.cpp:165] Memory required for data: 3879657856
I1102 19:05:39.893985  2431 layer_factory.hpp:77] Creating layer conv16_2_mbox_loc_perm
I1102 19:05:39.894004  2431 net.cpp:100] Creating Layer conv16_2_mbox_loc_perm
I1102 19:05:39.894008  2431 net.cpp:434] conv16_2_mbox_loc_perm <- conv16_2_mbox_loc
I1102 19:05:39.894012  2431 net.cpp:408] conv16_2_mbox_loc_perm -> conv16_2_mbox_loc_perm
I1102 19:05:39.894112  2431 net.cpp:150] Setting up conv16_2_mbox_loc_perm
I1102 19:05:39.894119  2431 net.cpp:157] Top shape: 24 2 2 24 (2304)
I1102 19:05:39.894121  2431 net.cpp:165] Memory required for data: 3879667072
I1102 19:05:39.894124  2431 layer_factory.hpp:77] Creating layer conv16_2_mbox_loc_flat
I1102 19:05:39.894129  2431 net.cpp:100] Creating Layer conv16_2_mbox_loc_flat
I1102 19:05:39.894134  2431 net.cpp:434] conv16_2_mbox_loc_flat <- conv16_2_mbox_loc_perm
I1102 19:05:39.894137  2431 net.cpp:408] conv16_2_mbox_loc_flat -> conv16_2_mbox_loc_flat
I1102 19:05:39.894155  2431 net.cpp:150] Setting up conv16_2_mbox_loc_flat
I1102 19:05:39.894160  2431 net.cpp:157] Top shape: 24 96 (2304)
I1102 19:05:39.894163  2431 net.cpp:165] Memory required for data: 3879676288
I1102 19:05:39.894166  2431 layer_factory.hpp:77] Creating layer conv16_2_mbox_conf_new
I1102 19:05:39.894173  2431 net.cpp:100] Creating Layer conv16_2_mbox_conf_new
I1102 19:05:39.894177  2431 net.cpp:434] conv16_2_mbox_conf_new <- conv16_2_conv16_2/relu_0_split_2
I1102 19:05:39.894183  2431 net.cpp:408] conv16_2_mbox_conf_new -> conv16_2_mbox_conf
I1102 19:05:39.895689  2431 net.cpp:150] Setting up conv16_2_mbox_conf_new
I1102 19:05:39.895697  2431 net.cpp:157] Top shape: 24 126 2 2 (12096)
I1102 19:05:39.895701  2431 net.cpp:165] Memory required for data: 3879724672
I1102 19:05:39.895706  2431 layer_factory.hpp:77] Creating layer conv16_2_mbox_conf_perm
I1102 19:05:39.895726  2431 net.cpp:100] Creating Layer conv16_2_mbox_conf_perm
I1102 19:05:39.895730  2431 net.cpp:434] conv16_2_mbox_conf_perm <- conv16_2_mbox_conf
I1102 19:05:39.895747  2431 net.cpp:408] conv16_2_mbox_conf_perm -> conv16_2_mbox_conf_perm
I1102 19:05:39.895848  2431 net.cpp:150] Setting up conv16_2_mbox_conf_perm
I1102 19:05:39.895853  2431 net.cpp:157] Top shape: 24 2 2 126 (12096)
I1102 19:05:39.895856  2431 net.cpp:165] Memory required for data: 3879773056
I1102 19:05:39.895879  2431 layer_factory.hpp:77] Creating layer conv16_2_mbox_conf_flat
I1102 19:05:39.895884  2431 net.cpp:100] Creating Layer conv16_2_mbox_conf_flat
I1102 19:05:39.895887  2431 net.cpp:434] conv16_2_mbox_conf_flat <- conv16_2_mbox_conf_perm
I1102 19:05:39.895905  2431 net.cpp:408] conv16_2_mbox_conf_flat -> conv16_2_mbox_conf_flat
I1102 19:05:39.895925  2431 net.cpp:150] Setting up conv16_2_mbox_conf_flat
I1102 19:05:39.895943  2431 net.cpp:157] Top shape: 24 504 (12096)
I1102 19:05:39.895946  2431 net.cpp:165] Memory required for data: 3879821440
I1102 19:05:39.895948  2431 layer_factory.hpp:77] Creating layer conv16_2_mbox_priorbox
I1102 19:05:39.895953  2431 net.cpp:100] Creating Layer conv16_2_mbox_priorbox
I1102 19:05:39.895956  2431 net.cpp:434] conv16_2_mbox_priorbox <- conv16_2_conv16_2/relu_0_split_3
I1102 19:05:39.895974  2431 net.cpp:434] conv16_2_mbox_priorbox <- data_data_0_split_5
I1102 19:05:39.895980  2431 net.cpp:408] conv16_2_mbox_priorbox -> conv16_2_mbox_priorbox
I1102 19:05:39.900029  2431 net.cpp:150] Setting up conv16_2_mbox_priorbox
I1102 19:05:39.900055  2431 net.cpp:157] Top shape: 1 2 96 (192)
I1102 19:05:39.900058  2431 net.cpp:165] Memory required for data: 3879822208
I1102 19:05:39.900061  2431 layer_factory.hpp:77] Creating layer conv17_2_mbox_loc
I1102 19:05:39.900082  2431 net.cpp:100] Creating Layer conv17_2_mbox_loc
I1102 19:05:39.900100  2431 net.cpp:434] conv17_2_mbox_loc <- conv17_2_conv17_2/relu_0_split_0
I1102 19:05:39.900106  2431 net.cpp:408] conv17_2_mbox_loc -> conv17_2_mbox_loc
I1102 19:05:39.901124  2431 net.cpp:150] Setting up conv17_2_mbox_loc
I1102 19:05:39.901134  2431 net.cpp:157] Top shape: 24 24 1 1 (576)
I1102 19:05:39.901136  2431 net.cpp:165] Memory required for data: 3879824512
I1102 19:05:39.901141  2431 layer_factory.hpp:77] Creating layer conv17_2_mbox_loc_perm
I1102 19:05:39.901160  2431 net.cpp:100] Creating Layer conv17_2_mbox_loc_perm
I1102 19:05:39.901165  2431 net.cpp:434] conv17_2_mbox_loc_perm <- conv17_2_mbox_loc
I1102 19:05:39.901170  2431 net.cpp:408] conv17_2_mbox_loc_perm -> conv17_2_mbox_loc_perm
I1102 19:05:39.901268  2431 net.cpp:150] Setting up conv17_2_mbox_loc_perm
I1102 19:05:39.901274  2431 net.cpp:157] Top shape: 24 1 1 24 (576)
I1102 19:05:39.901278  2431 net.cpp:165] Memory required for data: 3879826816
I1102 19:05:39.901279  2431 layer_factory.hpp:77] Creating layer conv17_2_mbox_loc_flat
I1102 19:05:39.901284  2431 net.cpp:100] Creating Layer conv17_2_mbox_loc_flat
I1102 19:05:39.901288  2431 net.cpp:434] conv17_2_mbox_loc_flat <- conv17_2_mbox_loc_perm
I1102 19:05:39.901306  2431 net.cpp:408] conv17_2_mbox_loc_flat -> conv17_2_mbox_loc_flat
I1102 19:05:39.901324  2431 net.cpp:150] Setting up conv17_2_mbox_loc_flat
I1102 19:05:39.901329  2431 net.cpp:157] Top shape: 24 24 (576)
I1102 19:05:39.901346  2431 net.cpp:165] Memory required for data: 3879829120
I1102 19:05:39.901350  2431 layer_factory.hpp:77] Creating layer conv17_2_mbox_conf_new
I1102 19:05:39.901356  2431 net.cpp:100] Creating Layer conv17_2_mbox_conf_new
I1102 19:05:39.901360  2431 net.cpp:434] conv17_2_mbox_conf_new <- conv17_2_conv17_2/relu_0_split_1
I1102 19:05:39.901378  2431 net.cpp:408] conv17_2_mbox_conf_new -> conv17_2_mbox_conf
I1102 19:05:39.902640  2431 net.cpp:150] Setting up conv17_2_mbox_conf_new
I1102 19:05:39.902650  2431 net.cpp:157] Top shape: 24 126 1 1 (3024)
I1102 19:05:39.902653  2431 net.cpp:165] Memory required for data: 3879841216
I1102 19:05:39.902658  2431 layer_factory.hpp:77] Creating layer conv17_2_mbox_conf_perm
I1102 19:05:39.902664  2431 net.cpp:100] Creating Layer conv17_2_mbox_conf_perm
I1102 19:05:39.902668  2431 net.cpp:434] conv17_2_mbox_conf_perm <- conv17_2_mbox_conf
I1102 19:05:39.902674  2431 net.cpp:408] conv17_2_mbox_conf_perm -> conv17_2_mbox_conf_perm
I1102 19:05:39.902781  2431 net.cpp:150] Setting up conv17_2_mbox_conf_perm
I1102 19:05:39.902786  2431 net.cpp:157] Top shape: 24 1 1 126 (3024)
I1102 19:05:39.902788  2431 net.cpp:165] Memory required for data: 3879853312
I1102 19:05:39.902791  2431 layer_factory.hpp:77] Creating layer conv17_2_mbox_conf_flat
I1102 19:05:39.902817  2431 net.cpp:100] Creating Layer conv17_2_mbox_conf_flat
I1102 19:05:39.902822  2431 net.cpp:434] conv17_2_mbox_conf_flat <- conv17_2_mbox_conf_perm
I1102 19:05:39.902825  2431 net.cpp:408] conv17_2_mbox_conf_flat -> conv17_2_mbox_conf_flat
I1102 19:05:39.902844  2431 net.cpp:150] Setting up conv17_2_mbox_conf_flat
I1102 19:05:39.902863  2431 net.cpp:157] Top shape: 24 126 (3024)
I1102 19:05:39.902865  2431 net.cpp:165] Memory required for data: 3879865408
I1102 19:05:39.902868  2431 layer_factory.hpp:77] Creating layer conv17_2_mbox_priorbox
I1102 19:05:39.902874  2431 net.cpp:100] Creating Layer conv17_2_mbox_priorbox
I1102 19:05:39.902878  2431 net.cpp:434] conv17_2_mbox_priorbox <- conv17_2_conv17_2/relu_0_split_2
I1102 19:05:39.902895  2431 net.cpp:434] conv17_2_mbox_priorbox <- data_data_0_split_6
I1102 19:05:39.902900  2431 net.cpp:408] conv17_2_mbox_priorbox -> conv17_2_mbox_priorbox
I1102 19:05:39.902933  2431 net.cpp:150] Setting up conv17_2_mbox_priorbox
I1102 19:05:39.902938  2431 net.cpp:157] Top shape: 1 2 24 (48)
I1102 19:05:39.902941  2431 net.cpp:165] Memory required for data: 3879865600
I1102 19:05:39.902945  2431 layer_factory.hpp:77] Creating layer mbox_loc
I1102 19:05:39.902952  2431 net.cpp:100] Creating Layer mbox_loc
I1102 19:05:39.902956  2431 net.cpp:434] mbox_loc <- conv11_mbox_loc_flat
I1102 19:05:39.902961  2431 net.cpp:434] mbox_loc <- conv13_mbox_loc_flat
I1102 19:05:39.902964  2431 net.cpp:434] mbox_loc <- conv14_2_mbox_loc_flat
I1102 19:05:39.902968  2431 net.cpp:434] mbox_loc <- conv15_2_mbox_loc_flat
I1102 19:05:39.902971  2431 net.cpp:434] mbox_loc <- conv16_2_mbox_loc_flat
I1102 19:05:39.902988  2431 net.cpp:434] mbox_loc <- conv17_2_mbox_loc_flat
I1102 19:05:39.902992  2431 net.cpp:408] mbox_loc -> mbox_loc
I1102 19:05:39.903028  2431 net.cpp:150] Setting up mbox_loc
I1102 19:05:39.903033  2431 net.cpp:157] Top shape: 24 7668 (184032)
I1102 19:05:39.903036  2431 net.cpp:165] Memory required for data: 3880601728
I1102 19:05:39.903038  2431 layer_factory.hpp:77] Creating layer mbox_conf
I1102 19:05:39.903043  2431 net.cpp:100] Creating Layer mbox_conf
I1102 19:05:39.903060  2431 net.cpp:434] mbox_conf <- conv11_mbox_conf_flat
I1102 19:05:39.903064  2431 net.cpp:434] mbox_conf <- conv13_mbox_conf_flat
I1102 19:05:39.903069  2431 net.cpp:434] mbox_conf <- conv14_2_mbox_conf_flat
I1102 19:05:39.903071  2431 net.cpp:434] mbox_conf <- conv15_2_mbox_conf_flat
I1102 19:05:39.903089  2431 net.cpp:434] mbox_conf <- conv16_2_mbox_conf_flat
I1102 19:05:39.903091  2431 net.cpp:434] mbox_conf <- conv17_2_mbox_conf_flat
I1102 19:05:39.903095  2431 net.cpp:408] mbox_conf -> mbox_conf
I1102 19:05:39.903129  2431 net.cpp:150] Setting up mbox_conf
I1102 19:05:39.903134  2431 net.cpp:157] Top shape: 24 40257 (966168)
I1102 19:05:39.903151  2431 net.cpp:165] Memory required for data: 3884466400
I1102 19:05:39.903153  2431 layer_factory.hpp:77] Creating layer mbox_priorbox
I1102 19:05:39.903158  2431 net.cpp:100] Creating Layer mbox_priorbox
I1102 19:05:39.903162  2431 net.cpp:434] mbox_priorbox <- conv11_mbox_priorbox
I1102 19:05:39.903167  2431 net.cpp:434] mbox_priorbox <- conv13_mbox_priorbox
I1102 19:05:39.903172  2431 net.cpp:434] mbox_priorbox <- conv14_2_mbox_priorbox
I1102 19:05:39.903174  2431 net.cpp:434] mbox_priorbox <- conv15_2_mbox_priorbox
I1102 19:05:39.903177  2431 net.cpp:434] mbox_priorbox <- conv16_2_mbox_priorbox
I1102 19:05:39.903180  2431 net.cpp:434] mbox_priorbox <- conv17_2_mbox_priorbox
I1102 19:05:39.903199  2431 net.cpp:408] mbox_priorbox -> mbox_priorbox
I1102 19:05:39.903229  2431 net.cpp:150] Setting up mbox_priorbox
I1102 19:05:39.903234  2431 net.cpp:157] Top shape: 1 2 7668 (15336)
I1102 19:05:39.903237  2431 net.cpp:165] Memory required for data: 3884527744
I1102 19:05:39.903240  2431 layer_factory.hpp:77] Creating layer mbox_loss
I1102 19:05:39.903250  2431 net.cpp:100] Creating Layer mbox_loss
I1102 19:05:39.903254  2431 net.cpp:434] mbox_loss <- mbox_loc
I1102 19:05:39.903257  2431 net.cpp:434] mbox_loss <- mbox_conf
I1102 19:05:39.903266  2431 net.cpp:434] mbox_loss <- mbox_priorbox
…
layer {
  name: "data"
  type: "AnnotatedData"
  top: "data"
  top: "label"
  include {
    phase: TEST
  }
  transform_param {
    scale: 0.007843
    mean_value: 127.5
    mean_value: 127.5
    mean_value: 127.5
    resize_param {
      prob: 1
      resize_mode: WARP
      height: 300
      width: 300
      interp_mode: LINEAR
    }
  }
  data_param {
    source: "/home/wu/caffe-ssd/examples/VOC0712/VOC0712_test_lmdb"
    batch_size: 8
    backend: LMDB
  }
  annotated_data_param {
    batch_sampler {
    }
    label_map_file: "labelmap.prototxt"
  }
}
layer {
  name: "conv0"
  type: "Convolution"
  bottom: "data"
  top: "conv0"
  param {
    lr_mult: 1
    decay_mult: 1
  }
  convolution_param {
    num_output: 32
    bias_term: false
    pad: 1
    kernel_size: 3
    stride: 2
    weight_filler {
      type: "msra"
    }
  }
}
layer {
  name: "conv0/bn"
  type: "BatchNorm"
  bottom: "conv0"
  top: "conv0"
}
layer {
  name: "conv0/scale"
  type: "Scale"
  bottom: "conv0"
  top: "conv0"
  param {
    lr_mult: 1
    decay_mult: 0
  }
  param {
    lr_mult: 2
    decay_mult: 0
  }
  scale_param {
    filler {
      value: 1
    }
    bias_term: true
    bias_filler {
      value: 0
    }
  }
}
layer {
  name: "conv0/relu"
  type: "ReLU"
  bottom: "conv0"
  top: "conv0"
}
layer {
  name: "conv1/dw"
  type: "Convolution"
  bottom: "conv0"
  top: "conv1/dw"
  param {
    lr_mult: 1
    decay_mult: 1
  }
  convolution_param {
    num_output: 32
    bias_term: false
    pad: 1
    kernel_size: 3
    group: 32
    weight_filler {
      type: "msra"
    }
    engine: CAFFE
  }
}
layer {
  name: "conv1/dw/bn"
  type: "BatchNorm"
  bottom: "conv1/dw"
  top: "conv1/dw"
}
layer {
  name: "conv1/dw/scale"
  type: "Scale"
  bottom: "conv1/dw"
  top: "conv1/dw"
  param {
    lr_mult: 1
    decay_mult: 0
  }
  param {
    lr_mult: 2
    decay_mult: 0
  }
  scale_param {
    filler {
      value: 1
    }
    bias_term: true
    bias_filler {
      value: 0
    }
  }
}
layer {
  name: "conv1/dw/relu"
  type: "ReLU"
  bottom: "conv1/dw"
  top: "conv1/dw"
}
layer {
  name: "conv1"
  type: "Convolution"
  bottom: "conv1/dw"
  top: "conv1"
  param {
    lr_mult: 1
    decay_mult: 1
  }
  convolution_param {
    num_output: 64
    bias_term: false
    kernel_size: 1
    weight_filler {
      type: "msra"
    }
  }
}
layer {
  name: "conv1/bn"
  type: "BatchNorm"
  bottom: "conv1"
  top: "conv1"
}
layer {
  name: "conv1/scale"
  type: "Scale"
  bottom: "conv1"
  top: "conv1"
  param {
    lr_mult: 1
    decay_mult: 0
  }
  param {
    lr_mult: 2
    decay_mult: 0
  }
  scale_param {
    filler {
      value: 1
    }
    bias_term: true
    bias_filler {
      value: 0
    }
  }
}
layer {
  name: "conv1/relu"
  type: "ReLU"
  bottom: "conv1"
  top: "conv1"
}
layer {
  name: "conv2/dw"
  type: "Convolution"
  bottom: "conv1"
  top: "conv2/dw"
  param {
    lr_mult: 1
    decay_mult: 1
  }
  convolution_param {
    num_output: 64
    bias_term: false
    pad: 1
    kernel_size: 3
    group: 64
    stride: 2
    weight_filler {
      type: "msra"
    }
    engine: CAFFE
  }
}
layer {
  name: "conv2/dw/bn"
  type: "BatchNorm"
  bottom: "conv2/dw"
  top: "conv2/dw"
}
layer {
  name: "conv2/dw/scale"
  type: "Scale"
  bottom: "conv2/dw"
  top: "conv2/dw"
  param {
    lr_mult: 1
    decay_mult: 0
  }
  param {
    lr_mult: 2
    decay_mult: 0
  }
  scale_param {
    filler {
      value: 1
    }
    bias_term: true
    bias_filler {
      value: 0
    }
  }
}
layer {
  name: "conv2/dw/relu"
  type: "ReLU"
  bottom: "conv2/dw"
  top: "conv2/dw"
}
layer {
  name: "conv2"
  type: "Convolution"
  bottom: "conv2/dw"
  top: "conv2"
  param {
    lr_mult: 1
    decay_mult: 1
  }
  convolution_param {
    num_output: 128
    bias_term: false
    kernel_size: 1
    weight_filler {
      type: "msra"
    }
  }
}
layer {
  name: "conv2/bn"
  type: "BatchNorm"
  bottom: "conv2"
  top: "conv2"
}
layer {
  name: "conv2/scale"
  type: "Scale"
  bottom: "conv2"
  top: "conv2"
  param {
    lr_mult: 1
    decay_mult: 0
  }
  param {
    lr_mult: 2
    decay_mult: 0
  }
  scale_param {
    filler {
      value: 1
    }
    bias_term: true
    bias_filler {
      value: 0
    }
  }
}
layer {
  name: "conv2/relu"
  type: "ReLU"
  bottom: "conv2"
  top: "conv2"
}
layer {
  name: "conv3/dw"
  type: "Convolution"
  bottom: "conv2"
  top: "conv3/dw"
  param {
    lr_mult: 1
    decay_mult: 1
  }
  convolution_param {
    num_output: 128
    bias_term: false
    pad: 1
    kernel_size: 3
    group: 128
    weight_filler {
      type: "msra"
    }
    engine: CAFFE
  }
}
layer {
  name: "conv3/dw/bn"
  type: "BatchNorm"
  bottom: "conv3/dw"
  top: "conv3/dw"
}
layer {
  name: "conv3/dw/scale"
  type: "Scale"
  bottom: "conv3/dw"
  top: "conv3/dw"
  param {
    lr_mult: 1
    decay_mult: 0
  }
  param {
    lr_mult: 2
    decay_mult: 0
  }
  scale_param {
    filler {
      value: 1
    }
    bias_term: true
    bias_filler {
      value: 0
    }
  }
}
layer {
  name: "conv3/dw/relu"
  type: "ReLU"
  bottom: "conv3/dw"
  top: "conv3/dw"
}
layer {
  name: "conv3"
  type: "Convolution"
  bottom: "conv3/dw"
  top: "conv3"
  param {
    lr_mult: 1
    decay_mult: 1
  }
  convolution_param {
    num_output: 128
    bias_term: false
    kernel_size: 1
    weight_filler {
      type: "msra"
    }
  }
}
layer {
  name: "conv3/bn"
  type: "BatchNorm"
  bottom: "conv3"
  top: "conv3"
}
layer {
  name: "conv3/scale"
  type: "Scale"
  bottom: "conv3"
  top: "conv3"
  param {
    lr_mult: 1
    decay_mult: 0
  }
  param {
    lr_mult: 2
    decay_mult: 0
  }
  scale_param {
    filler {
      value: 1
    }
    bias_term: true
    bias_filler {
      value: 0
    }
  }
}
layer {
  name: "conv3/relu"
  type: "ReLU"
  bottom: "conv3"
  top: "conv3"
}
layer {
  name: "conv4/dw"
  type: "Convolution"
  bottom: "conv3"
  top: "conv4/dw"
  param {
    lr_mult: 1
    decay_mult: 1
  }
  convolution_param {
    num_output: 128
    bias_term: false
    pad: 1
    kernel_size: 3
    group: 128
    stride: 2
    weight_filler {
      type: "msra"
    }
    engine: CAFFE
  }
}
layer {
  name: "conv4/dw/bn"
  type: "BatchNorm"
  bottom: "conv4/dw"
  top: "conv4/dw"
}
layer {
  name: "conv4/dw/scale"
  type: "Scale"
  bottom: "conv4/dw"
  top: "conv4/dw"
  param {
    lr_mult: 1
    decay_mult: 0
  }
  param {
    lr_mult: 2
    decay_mult: 0
  }
  scale_param {
    filler {
      value: 1
    }
    bias_term: true
    bias_filler {
      value: 0
    }
  }
}
layer {
  name: "conv4/dw/relu"
  type: "ReLU"
  bottom: "conv4/dw"
  top: "conv4/dw"
}
layer {
  name: "conv4"
  type: "Convolution"
  bottom: "conv4/dw"
  top: "conv4"
  param {
    lr_mult: 1
    decay_mult: 1
  }
  convolution_param {
    num_output: 256
    bias_term: false
    kernel_size: 1
    weight_filler {
      type: "msra"
    }
  }
}
layer {
  name: "conv4/bn"
  type: "BatchNorm"
  bottom: "conv4"
  top: "conv4"
}
layer {
  name: "conv4/scale"
  type: "Scale"
  bottom: "conv4"
  top: "conv4"
  param {
    lr_mult: 1
    decay_mult: 0
  }
  param {
    lr_mult: 2
    decay_mult: 0
  }
  scale_param {
    filler {
      value: 1
    }
    bias_term: true
    bias_filler {
      value: 0
    }
  }
}
layer {
  name: "conv4/relu"
  type: "ReLU"
  bottom: "conv4"
  top: "conv4"
}
layer {
  name: "conv5/dw"
  type: "Convolution"
  bottom: "conv4"
  top: "conv5/dw"
  param {
    lr_mult: 1
    decay_mult: 1
  }
  convolution_param {
    num_output: 256
    bias_term: false
    pad: 1
    kernel_size: 3
    group: 256
    weight_filler {
      type: "msra"
    }
    engine: CAFFE
  }
}
layer {
  name: "conv5/dw/bn"
  type: "BatchNorm"
  bottom: "conv5/dw"
  top: "conv5/dw"
}
layer {
  name: "conv5/dw/scale"
  type: "Scale"
  bottom: "conv5/dw"
  top: "conv5/dw"
  param {
    lr_mult: 1
    decay_mult: 0
  }
  param {
    lr_mult: 2
    decay_mult: 0
  }
  scale_param {
    filler {
      value: 1
    }
    bias_term: true
    bias_filler {
      value: 0
    }
  }
}
layer {
  name: "conv5/dw/relu"
  type: "ReLU"
  bottom: "conv5/dw"
  top: "conv5/dw"
}
layer {
  name: "conv5"
  type: "Convolution"
  bottom: "conv5/dw"
  top: "conv5"
  param {
    lr_mult: 1
    decay_mult: 1
  }
  convolution_param {
    num_output: 256
    bias_term: false
    kernel_size: 1
    weight_filler {
      type: "msra"
    }
  }
}
layer {
  name: "conv5/bn"
  type: "BatchNorm"
  bottom: "conv5"
  top: "conv5"
}
layer {
  name: "conv5/scale"
  type: "Scale"
  bottom: "conv5"
  top: "conv5"
  param {
    lr_mult: 1
    decay_mult: 0
  }
  param {
    lr_mult: 2
    decay_mult: 0
  }
  scale_param {
    filler {
      value: 1
    }
    bias_term: true
    bias_filler {
      value: 0
    }
  }
}
layer {
  name: "conv5/relu"
  type: "ReLU"
  bottom: "conv5"
  top: "conv5"
}
layer {
  name: "conv6/dw"
  type: "Convolution"
  bottom: "conv5"
  top: "conv6/dw"
  param {
    lr_mult: 1
    decay_mult: 1
  }
  convolution_param {
    num_output: 256
    bias_term: false
    pad: 1
    kernel_size: 3
    group: 256
    stride: 2
    weight_filler {
      type: "msra"
    }
    engine: CAFFE
  }
}
layer {
  name: "conv6/dw/bn"
  type: "BatchNorm"
  bottom: "conv6/dw"
  top: "conv6/dw"
}
layer {
  name: "conv6/dw/scale"
  type: "Scale"
  bottom: "conv6/dw"
  top: "conv6/dw"
  param {
    lr_mult: 1
    decay_mult: 0
  }
  param {
    lr_mult: 2
    decay_mult: 0
  }
  scale_param {
    filler {
      value: 1
    }
    bias_term: true
    bias_filler {
      value: 0
    }
  }
}
layer {
  name: "conv6/dw/relu"
  type: "ReLU"
  bottom: "conv6/dw"
  top: "conv6/dw"
}
layer {
  name: "conv6"
  type: "Convolution"
  bottom: "conv6/dw"
  top: "conv6"
  param {
    lr_mult: 1
    decay_mult: 1
  }
  convolution_param {
    num_output: 512
    bias_term: false
    kernel_size: 1
    weight_filler {
      type: "msra"
    }
  }
}
layer {
  name: "conv6/bn"
  type: "BatchNorm"
  bottom: "conv6"
  top: "conv6"
}
layer {
  name: "conv6/scale"
  type: "Scale"
  bottom: "conv6"
  top: "conv6"
  param {
    lr_mult: 1
    decay_mult: 0
  }
  param {
    lr_mult: 2
    decay_mult: 0
  }
  scale_param {
    filler {
      value: 1
    }
    bias_term: true
    bias_filler {
      value: 0
    }
  }
}
layer {
  name: "conv6/relu"
  type: "ReLU"
  bottom: "conv6"
  top: "conv6"
}
layer {
  name: "conv7/dw"
  type: "Convolution"
  bottom: "conv6"
  top: "conv7/dw"
  param {
    lr_mult: 1
    decay_mult: 1
  }
  convolution_param {
    num_output: 512
    bias_term: false
    pad: 1
    kernel_size: 3
    group: 512
    weight_filler {
      type: "msra"
    }
    engine: CAFFE
  }
}
layer {
  name: "conv7/dw/bn"
  type: "BatchNorm"
  bottom: "conv7/dw"
  top: "conv7/dw"
}
layer {
  name: "conv7/dw/scale"
  type: "Scale"
  bottom: "conv7/dw"
  top: "conv7/dw"
  param {
    lr_mult: 1
    decay_mult: 0
  }
  param {
    lr_mult: 2
    decay_mult: 0
  }
  scale_param {
    filler {
      value: 1
    }
    bias_term: true
    bias_filler {
      value: 0
    }
  }
}
layer {
  name: "conv7/dw/relu"
  type: "ReLU"
  bottom: "conv7/dw"
  top: "conv7/dw"
}
layer {
  name: "conv7"
  type: "Convolution"
  bottom: "conv7/dw"
  top: "conv7"
  param {
    lr_mult: 1
    decay_mult: 1
  }
  convolution_param {
    num_output: 512
    bias_term: false
    kernel_size: 1
    weight_filler {
      type: "msra"
    }
  }
}
layer {
  name: "conv7/bn"
  type: "BatchNorm"
  bottom: "conv7"
  top: "conv7"
}
layer {
  name: "conv7/scale"
  type: "Scale"
  bottom: "conv7"
  top: "conv7"
  param {
    lr_mult: 1
    decay_mult: 0
  }
  param {
    lr_mult: 2
    decay_mult: 0
  }
  scale_param {
    filler {
      value: 1
    }
    bias_term: true
    bias_filler {
      value: 0
    }
  }
}
layer {
  name: "conv7/relu"
  type: "ReLU"
  bottom: "conv7"
  top: "conv7"
}
layer {
  name: "conv8/dw"
  type: "Convolution"
  bottom: "conv7"
  top: "conv8/dw"
  param {
    lr_mult: 1
    decay_mult: 1
  }
  convolution_param {
    num_output: 512
    bias_term: false
    pad: 1
    kernel_size: 3
    group: 512
    weight_filler {
      type: "msra"
    }
    engine: CAFFE
  }
}
layer {
  name: "conv8/dw/bn"
  type: "BatchNorm"
  bottom: "conv8/dw"
  top: "conv8/dw"
}
layer {
  name: "conv8/dw/scale"
  type: "Scale"
  bottom: "conv8/dw"
  top: "conv8/dw"
  param {
    lr_mult: 1
    decay_mult: 0
  }
  param {
    lr_mult: 2
    decay_mult: 0
  }
  scale_param {
    filler {
      value: 1
    }
    bias_term: true
    bias_filler {
      value: 0
    }
  }
}
layer {
  name: "conv8/dw/relu"
  type: "ReLU"
  bottom: "conv8/dw"
  top: "conv8/dw"
}
layer {
  name: "conv8"
  type: "Convolution"
  bottom: "conv8/dw"
  top: "conv8"
  param {
    lr_mult: 1
    decay_mult: 1
  }
  convolution_param {
    num_output: 512
    bias_term: false
    kernel_size: 1
    weight_filler {
      type: "msra"
    }
  }
}
layer {
  name: "conv8/bn"
  type: "BatchNorm"
  bottom: "conv8"
  top: "conv8"
}
layer {
  name: "conv8/scale"
  type: "Scale"
  bottom: "conv8"
  top: "conv8"
  param {
    lr_mult: 1
    decay_mult: 0
  }
  param {
    lr_mult: 2
    decay_mult: 0
  }
  scale_param {
    filler {
      value: 1
    }
    bias_term: true
    bias_filler {
      value: 0
    }
  }
}
layer {
  name: "conv8/relu"
  type: "ReLU"
  bottom: "conv8"
  top: "conv8"
}
layer {
  name: "conv9/dw"
  type: "Convolution"
  bottom: "conv8"
  top: "conv9/dw"
  param {
    lr_mult: 1
    decay_mult: 1
  }
  convolution_param {
    num_output: 512
    bias_term: false
    pad: 1
    kernel_size: 3
    group: 512
    weight_filler {
      type: "msra"
    }
    engine: CAFFE
  }
}
layer {
  name: "conv9/dw/bn"
  type: "BatchNorm"
  bottom: "conv9/dw"
  top: "conv9/dw"
}
layer {
  name: "conv9/dw/scale"
  type: "Scale"
  bottom: "conv9/dw"
  top: "conv9/dw"
  param {
    lr_mult: 1
    decay_mult: 0
  }
  param {
    lr_mult: 2
    decay_mult: 0
  }
  scale_param {
    filler {
      value: 1
    }
    bias_term: true
    bias_filler {
      value: 0
    }
  }
}
layer {
  name: "conv9/dw/relu"
…
I1102 19:05:40.392985  2431 layer_factory.hpp:77] Creating layer conv14_1/scale
I1102 19:05:40.393013  2431 net.cpp:100] Creating Layer conv14_1/scale
I1102 19:05:40.393019  2431 net.cpp:434] conv14_1/scale <- conv14_1
I1102 19:05:40.393025  2431 net.cpp:395] conv14_1/scale -> conv14_1 (in-place)
I1102 19:05:40.393066  2431 layer_factory.hpp:77] Creating layer conv14_1/scale
I1102 19:05:40.393194  2431 net.cpp:150] Setting up conv14_1/scale
I1102 19:05:40.393201  2431 net.cpp:157] Top shape: 8 256 10 10 (204800)
I1102 19:05:40.393204  2431 net.cpp:165] Memory required for data: 1283100736
I1102 19:05:40.393213  2431 layer_factory.hpp:77] Creating layer conv14_1/relu
I1102 19:05:40.393224  2431 net.cpp:100] Creating Layer conv14_1/relu
I1102 19:05:40.393232  2431 net.cpp:434] conv14_1/relu <- conv14_1
I1102 19:05:40.393251  2431 net.cpp:395] conv14_1/relu -> conv14_1 (in-place)
I1102 19:05:40.393456  2431 net.cpp:150] Setting up conv14_1/relu
I1102 19:05:40.393463  2431 net.cpp:157] Top shape: 8 256 10 10 (204800)
I1102 19:05:40.393466  2431 net.cpp:165] Memory required for data: 1283919936
I1102 19:05:40.393484  2431 layer_factory.hpp:77] Creating layer conv14_2
I1102 19:05:40.393493  2431 net.cpp:100] Creating Layer conv14_2
I1102 19:05:40.393497  2431 net.cpp:434] conv14_2 <- conv14_1
I1102 19:05:40.393503  2431 net.cpp:408] conv14_2 -> conv14_2
I1102 19:05:40.479212  2431 net.cpp:150] Setting up conv14_2
I1102 19:05:40.479230  2431 net.cpp:157] Top shape: 8 512 5 5 (102400)
I1102 19:05:40.479233  2431 net.cpp:165] Memory required for data: 1284329536
I1102 19:05:40.479254  2431 layer_factory.hpp:77] Creating layer conv14_2/bn
I1102 19:05:40.479261  2431 net.cpp:100] Creating Layer conv14_2/bn
I1102 19:05:40.479267  2431 net.cpp:434] conv14_2/bn <- conv14_2
I1102 19:05:40.479272  2431 net.cpp:395] conv14_2/bn -> conv14_2 (in-place)
I1102 19:05:40.479518  2431 net.cpp:150] Setting up conv14_2/bn
I1102 19:05:40.479526  2431 net.cpp:157] Top shape: 8 512 5 5 (102400)
I1102 19:05:40.479528  2431 net.cpp:165] Memory required for data: 1284739136
I1102 19:05:40.479534  2431 layer_factory.hpp:77] Creating layer conv14_2/scale
I1102 19:05:40.479555  2431 net.cpp:100] Creating Layer conv14_2/scale
I1102 19:05:40.479558  2431 net.cpp:434] conv14_2/scale <- conv14_2
I1102 19:05:40.479562  2431 net.cpp:395] conv14_2/scale -> conv14_2 (in-place)
I1102 19:05:40.479640  2431 layer_factory.hpp:77] Creating layer conv14_2/scale
I1102 19:05:40.479764  2431 net.cpp:150] Setting up conv14_2/scale
I1102 19:05:40.479770  2431 net.cpp:157] Top shape: 8 512 5 5 (102400)
I1102 19:05:40.479773  2431 net.cpp:165] Memory required for data: 1285148736
I1102 19:05:40.479777  2431 layer_factory.hpp:77] Creating layer conv14_2/relu
I1102 19:05:40.479782  2431 net.cpp:100] Creating Layer conv14_2/relu
I1102 19:05:40.479800  2431 net.cpp:434] conv14_2/relu <- conv14_2
I1102 19:05:40.479804  2431 net.cpp:395] conv14_2/relu -> conv14_2 (in-place)
I1102 19:05:40.479992  2431 net.cpp:150] Setting up conv14_2/relu
I1102 19:05:40.480003  2431 net.cpp:157] Top shape: 8 512 5 5 (102400)
I1102 19:05:40.480006  2431 net.cpp:165] Memory required for data: 1285558336
I1102 19:05:40.480010  2431 layer_factory.hpp:77] Creating layer conv14_2_conv14_2/relu_0_split
I1102 19:05:40.480029  2431 net.cpp:100] Creating Layer conv14_2_conv14_2/relu_0_split
I1102 19:05:40.480032  2431 net.cpp:434] conv14_2_conv14_2/relu_0_split <- conv14_2
I1102 19:05:40.480051  2431 net.cpp:408] conv14_2_conv14_2/relu_0_split -> conv14_2_conv14_2/relu_0_split_0
I1102 19:05:40.480057  2431 net.cpp:408] conv14_2_conv14_2/relu_0_split -> conv14_2_conv14_2/relu_0_split_1
I1102 19:05:40.480062  2431 net.cpp:408] conv14_2_conv14_2/relu_0_split -> conv14_2_conv14_2/relu_0_split_2
I1102 19:05:40.480067  2431 net.cpp:408] conv14_2_conv14_2/relu_0_split -> conv14_2_conv14_2/relu_0_split_3
I1102 19:05:40.480154  2431 net.cpp:150] Setting up conv14_2_conv14_2/relu_0_split
I1102 19:05:40.480171  2431 net.cpp:157] Top shape: 8 512 5 5 (102400)
I1102 19:05:40.480175  2431 net.cpp:157] Top shape: 8 512 5 5 (102400)
I1102 19:05:40.480178  2431 net.cpp:157] Top shape: 8 512 5 5 (102400)
I1102 19:05:40.480196  2431 net.cpp:157] Top shape: 8 512 5 5 (102400)
I1102 19:05:40.480198  2431 net.cpp:165] Memory required for data: 1287196736
I1102 19:05:40.480201  2431 layer_factory.hpp:77] Creating layer conv15_1
I1102 19:05:40.480221  2431 net.cpp:100] Creating Layer conv15_1
I1102 19:05:40.480226  2431 net.cpp:434] conv15_1 <- conv14_2_conv14_2/relu_0_split_0
I1102 19:05:40.480229  2431 net.cpp:408] conv15_1 -> conv15_1
I1102 19:05:40.489158  2431 net.cpp:150] Setting up conv15_1
I1102 19:05:40.489168  2431 net.cpp:157] Top shape: 8 128 5 5 (25600)
I1102 19:05:40.489172  2431 net.cpp:165] Memory required for data: 1287299136
I1102 19:05:40.489176  2431 layer_factory.hpp:77] Creating layer conv15_1/bn
I1102 19:05:40.489197  2431 net.cpp:100] Creating Layer conv15_1/bn
I1102 19:05:40.489202  2431 net.cpp:434] conv15_1/bn <- conv15_1
I1102 19:05:40.489205  2431 net.cpp:395] conv15_1/bn -> conv15_1 (in-place)
I1102 19:05:40.489467  2431 net.cpp:150] Setting up conv15_1/bn
I1102 19:05:40.489473  2431 net.cpp:157] Top shape: 8 128 5 5 (25600)
I1102 19:05:40.489476  2431 net.cpp:165] Memory required for data: 1287401536
I1102 19:05:40.489482  2431 layer_factory.hpp:77] Creating layer conv15_1/scale
I1102 19:05:40.489502  2431 net.cpp:100] Creating Layer conv15_1/scale
I1102 19:05:40.489506  2431 net.cpp:434] conv15_1/scale <- conv15_1
I1102 19:05:40.489509  2431 net.cpp:395] conv15_1/scale -> conv15_1 (in-place)
I1102 19:05:40.489585  2431 layer_factory.hpp:77] Creating layer conv15_1/scale
I1102 19:05:40.489759  2431 net.cpp:150] Setting up conv15_1/scale
I1102 19:05:40.489764  2431 net.cpp:157] Top shape: 8 128 5 5 (25600)
I1102 19:05:40.489768  2431 net.cpp:165] Memory required for data: 1287503936
I1102 19:05:40.489771  2431 layer_factory.hpp:77] Creating layer conv15_1/relu
I1102 19:05:40.489791  2431 net.cpp:100] Creating Layer conv15_1/relu
I1102 19:05:40.489794  2431 net.cpp:434] conv15_1/relu <- conv15_1
I1102 19:05:40.489799  2431 net.cpp:395] conv15_1/relu -> conv15_1 (in-place)
I1102 19:05:40.489959  2431 net.cpp:150] Setting up conv15_1/relu
I1102 19:05:40.489965  2431 net.cpp:157] Top shape: 8 128 5 5 (25600)
I1102 19:05:40.489969  2431 net.cpp:165] Memory required for data: 1287606336
I1102 19:05:40.489994  2431 layer_factory.hpp:77] Creating layer conv15_2
I1102 19:05:40.490001  2431 net.cpp:100] Creating Layer conv15_2
I1102 19:05:40.490005  2431 net.cpp:434] conv15_2 <- conv15_1
I1102 19:05:40.490023  2431 net.cpp:408] conv15_2 -> conv15_2
I1102 19:05:40.506814  2431 net.cpp:150] Setting up conv15_2
I1102 19:05:40.506840  2431 net.cpp:157] Top shape: 8 256 3 3 (18432)
I1102 19:05:40.506860  2431 net.cpp:165] Memory required for data: 1287680064
I1102 19:05:40.506868  2431 layer_factory.hpp:77] Creating layer conv15_2/bn
I1102 19:05:40.506893  2431 net.cpp:100] Creating Layer conv15_2/bn
I1102 19:05:40.506901  2431 net.cpp:434] conv15_2/bn <- conv15_2
I1102 19:05:40.506911  2431 net.cpp:395] conv15_2/bn -> conv15_2 (in-place)
I1102 19:05:40.507261  2431 net.cpp:150] Setting up conv15_2/bn
I1102 19:05:40.507272  2431 net.cpp:157] Top shape: 8 256 3 3 (18432)
I1102 19:05:40.507277  2431 net.cpp:165] Memory required for data: 1287753792
I1102 19:05:40.507302  2431 layer_factory.hpp:77] Creating layer conv15_2/scale
I1102 19:05:40.507310  2431 net.cpp:100] Creating Layer conv15_2/scale
I1102 19:05:40.507314  2431 net.cpp:434] conv15_2/scale <- conv15_2
I1102 19:05:40.507318  2431 net.cpp:395] conv15_2/scale -> conv15_2 (in-place)
I1102 19:05:40.507371  2431 layer_factory.hpp:77] Creating layer conv15_2/scale
I1102 19:05:40.507493  2431 net.cpp:150] Setting up conv15_2/scale
I1102 19:05:40.507498  2431 net.cpp:157] Top shape: 8 256 3 3 (18432)
I1102 19:05:40.507501  2431 net.cpp:165] Memory required for data: 1287827520
I1102 19:05:40.507505  2431 layer_factory.hpp:77] Creating layer conv15_2/relu
I1102 19:05:40.507537  2431 net.cpp:100] Creating Layer conv15_2/relu
I1102 19:05:40.507542  2431 net.cpp:434] conv15_2/relu <- conv15_2
I1102 19:05:40.507546  2431 net.cpp:395] conv15_2/relu -> conv15_2 (in-place)
I1102 19:05:40.507709  2431 net.cpp:150] Setting up conv15_2/relu
I1102 19:05:40.507717  2431 net.cpp:157] Top shape: 8 256 3 3 (18432)
I1102 19:05:40.507720  2431 net.cpp:165] Memory required for data: 1287901248
I1102 19:05:40.507737  2431 layer_factory.hpp:77] Creating layer conv15_2_conv15_2/relu_0_split
I1102 19:05:40.507741  2431 net.cpp:100] Creating Layer conv15_2_conv15_2/relu_0_split
I1102 19:05:40.507762  2431 net.cpp:434] conv15_2_conv15_2/relu_0_split <- conv15_2
I1102 19:05:40.507766  2431 net.cpp:408] conv15_2_conv15_2/relu_0_split -> conv15_2_conv15_2/relu_0_split_0
I1102 19:05:40.507772  2431 net.cpp:408] conv15_2_conv15_2/relu_0_split -> conv15_2_conv15_2/relu_0_split_1
I1102 19:05:40.507778  2431 net.cpp:408] conv15_2_conv15_2/relu_0_split -> conv15_2_conv15_2/relu_0_split_2
I1102 19:05:40.507786  2431 net.cpp:408] conv15_2_conv15_2/relu_0_split -> conv15_2_conv15_2/relu_0_split_3
I1102 19:05:40.507897  2431 net.cpp:150] Setting up conv15_2_conv15_2/relu_0_split
I1102 19:05:40.507903  2431 net.cpp:157] Top shape: 8 256 3 3 (18432)
I1102 19:05:40.507906  2431 net.cpp:157] Top shape: 8 256 3 3 (18432)
I1102 19:05:40.507923  2431 net.cpp:157] Top shape: 8 256 3 3 (18432)
I1102 19:05:40.507927  2431 net.cpp:157] Top shape: 8 256 3 3 (18432)
I1102 19:05:40.507930  2431 net.cpp:165] Memory required for data: 1288196160
I1102 19:05:40.507932  2431 layer_factory.hpp:77] Creating layer conv16_1
I1102 19:05:40.507953  2431 net.cpp:100] Creating Layer conv16_1
I1102 19:05:40.507957  2431 net.cpp:434] conv16_1 <- conv15_2_conv15_2/relu_0_split_0
I1102 19:05:40.507977  2431 net.cpp:408] conv16_1 -> conv16_1
I1102 19:05:40.523272  2431 net.cpp:150] Setting up conv16_1
I1102 19:05:40.523322  2431 net.cpp:157] Top shape: 8 128 3 3 (9216)
I1102 19:05:40.523327  2431 net.cpp:165] Memory required for data: 1288233024
I1102 19:05:40.523350  2431 layer_factory.hpp:77] Creating layer conv16_1/bn
I1102 19:05:40.523372  2431 net.cpp:100] Creating Layer conv16_1/bn
I1102 19:05:40.523380  2431 net.cpp:434] conv16_1/bn <- conv16_1
I1102 19:05:40.523391  2431 net.cpp:395] conv16_1/bn -> conv16_1 (in-place)
I1102 19:05:40.523777  2431 net.cpp:150] Setting up conv16_1/bn
I1102 19:05:40.523788  2431 net.cpp:157] Top shape: 8 128 3 3 (9216)
I1102 19:05:40.523818  2431 net.cpp:165] Memory required for data: 1288269888
I1102 19:05:40.523838  2431 layer_factory.hpp:77] Creating layer conv16_1/scale
I1102 19:05:40.523862  2431 net.cpp:100] Creating Layer conv16_1/scale
I1102 19:05:40.523869  2431 net.cpp:434] conv16_1/scale <- conv16_1
I1102 19:05:40.523878  2431 net.cpp:395] conv16_1/scale -> conv16_1 (in-place)
I1102 19:05:40.523957  2431 layer_factory.hpp:77] Creating layer conv16_1/scale
I1102 19:05:40.532105  2431 net.cpp:150] Setting up conv16_1/scale
I1102 19:05:40.532116  2431 net.cpp:157] Top shape: 8 128 3 3 (9216)
I1102 19:05:40.532120  2431 net.cpp:165] Memory required for data: 1288306752
I1102 19:05:40.532125  2431 layer_factory.hpp:77] Creating layer conv16_1/relu
I1102 19:05:40.532132  2431 net.cpp:100] Creating Layer conv16_1/relu
I1102 19:05:40.532150  2431 net.cpp:434] conv16_1/relu <- conv16_1
I1102 19:05:40.532168  2431 net.cpp:395] conv16_1/relu -> conv16_1 (in-place)
I1102 19:05:40.532743  2431 net.cpp:150] Setting up conv16_1/relu
I1102 19:05:40.532753  2431 net.cpp:157] Top shape: 8 128 3 3 (9216)
I1102 19:05:40.532757  2431 net.cpp:165] Memory required for data: 1288343616
I1102 19:05:40.532762  2431 layer_factory.hpp:77] Creating layer conv16_2
I1102 19:05:40.532783  2431 net.cpp:100] Creating Layer conv16_2
I1102 19:05:40.532788  2431 net.cpp:434] conv16_2 <- conv16_1
I1102 19:05:40.532793  2431 net.cpp:408] conv16_2 -> conv16_2
I1102 19:05:40.554725  2431 net.cpp:150] Setting up conv16_2
I1102 19:05:40.554751  2431 net.cpp:157] Top shape: 8 256 2 2 (8192)
I1102 19:05:40.554757  2431 net.cpp:165] Memory required for data: 1288376384
I1102 19:05:40.554780  2431 layer_factory.hpp:77] Creating layer conv16_2/bn
I1102 19:05:40.554793  2431 net.cpp:100] Creating Layer conv16_2/bn
I1102 19:05:40.554800  2431 net.cpp:434] conv16_2/bn <- conv16_2
I1102 19:05:40.554822  2431 net.cpp:395] conv16_2/bn -> conv16_2 (in-place)
I1102 19:05:40.555114  2431 net.cpp:150] Setting up conv16_2/bn
I1102 19:05:40.555124  2431 net.cpp:157] Top shape: 8 256 2 2 (8192)
I1102 19:05:40.555130  2431 net.cpp:165] Memory required for data: 1288409152
I1102 19:05:40.555153  2431 layer_factory.hpp:77] Creating layer conv16_2/scale
I1102 19:05:40.555178  2431 net.cpp:100] Creating Layer conv16_2/scale
I1102 19:05:40.555186  2431 net.cpp:434] conv16_2/scale <- conv16_2
I1102 19:05:40.555191  2431 net.cpp:395] conv16_2/scale -> conv16_2 (in-place)
I1102 19:05:40.555256  2431 layer_factory.hpp:77] Creating layer conv16_2/scale
I1102 19:05:40.555403  2431 net.cpp:150] Setting up conv16_2/scale
I1102 19:05:40.555413  2431 net.cpp:157] Top shape: 8 256 2 2 (8192)
I1102 19:05:40.555418  2431 net.cpp:165] Memory required for data: 1288441920
I1102 19:05:40.555440  2431 layer_factory.hpp:77] Creating layer conv16_2/relu
I1102 19:05:40.555449  2431 net.cpp:100] Creating Layer conv16_2/relu
I1102 19:05:40.555452  2431 net.cpp:434] conv16_2/relu <- conv16_2
I1102 19:05:40.555460  2431 net.cpp:395] conv16_2/relu -> conv16_2 (in-place)
I1102 19:05:40.555718  2431 net.cpp:150] Setting up conv16_2/relu
I1102 19:05:40.555728  2431 net.cpp:157] Top shape: 8 256 2 2 (8192)
I1102 19:05:40.555732  2431 net.cpp:165] Memory required for data: 1288474688
I1102 19:05:40.555737  2431 layer_factory.hpp:77] Creating layer conv16_2_conv16_2/relu_0_split
I1102 19:05:40.555758  2431 net.cpp:100] Creating Layer conv16_2_conv16_2/relu_0_split
I1102 19:05:40.555763  2431 net.cpp:434] conv16_2_conv16_2/relu_0_split <- conv16_2
I1102 19:05:40.555770  2431 net.cpp:408] conv16_2_conv16_2/relu_0_split -> conv16_2_conv16_2/relu_0_split_0
I1102 19:05:40.555779  2431 net.cpp:408] conv16_2_conv16_2/relu_0_split -> conv16_2_conv16_2/relu_0_split_1
I1102 19:05:40.555801  2431 net.cpp:408] conv16_2_conv16_2/relu_0_split -> conv16_2_conv16_2/relu_0_split_2
I1102 19:05:40.555821  2431 net.cpp:408] conv16_2_conv16_2/relu_0_split -> conv16_2_conv16_2/relu_0_split_3
I1102 19:05:40.555932  2431 net.cpp:150] Setting up conv16_2_conv16_2/relu_0_split
I1102 19:05:40.555940  2431 net.cpp:157] Top shape: 8 256 2 2 (8192)
I1102 19:05:40.555958  2431 net.cpp:157] Top shape: 8 256 2 2 (8192)
I1102 19:05:40.555964  2431 net.cpp:157] Top shape: 8 256 2 2 (8192)
I1102 19:05:40.555969  2431 net.cpp:157] Top shape: 8 256 2 2 (8192)
I1102 19:05:40.555974  2431 net.cpp:165] Memory required for data: 1288605760
I1102 19:05:40.555979  2431 layer_factory.hpp:77] Creating layer conv17_1
I1102 19:05:40.555991  2431 net.cpp:100] Creating Layer conv17_1
I1102 19:05:40.564061  2431 net.cpp:434] conv17_1 <- conv16_2_conv16_2/relu_0_split_0
I1102 19:05:40.564092  2431 net.cpp:408] conv17_1 -> conv17_1
I1102 19:05:40.566490  2431 net.cpp:150] Setting up conv17_1
I1102 19:05:40.566519  2431 net.cpp:157] Top shape: 8 64 2 2 (2048)
I1102 19:05:40.566525  2431 net.cpp:165] Memory required for data: 1288613952
I1102 19:05:40.566534  2431 layer_factory.hpp:77] Creating layer conv17_1/bn
I1102 19:05:40.566546  2431 net.cpp:100] Creating Layer conv17_1/bn
I1102 19:05:40.566553  2431 net.cpp:434] conv17_1/bn <- conv17_1
I1102 19:05:40.566561  2431 net.cpp:395] conv17_1/bn -> conv17_1 (in-place)
I1102 19:05:40.566800  2431 net.cpp:150] Setting up conv17_1/bn
I1102 19:05:40.566807  2431 net.cpp:157] Top shape: 8 64 2 2 (2048)
I1102 19:05:40.566810  2431 net.cpp:165] Memory required for data: 1288622144
I1102 19:05:40.566817  2431 layer_factory.hpp:77] Creating layer conv17_1/scale
I1102 19:05:40.566839  2431 net.cpp:100] Creating Layer conv17_1/scale
I1102 19:05:40.566843  2431 net.cpp:434] conv17_1/scale <- conv17_1
I1102 19:05:40.566860  2431 net.cpp:395] conv17_1/scale -> conv17_1 (in-place)
I1102 19:05:40.566916  2431 layer_factory.hpp:77] Creating layer conv17_1/scale
I1102 19:05:40.567106  2431 net.cpp:150] Setting up conv17_1/scale
I1102 19:05:40.567111  2431 net.cpp:157] Top shape: 8 64 2 2 (2048)
I1102 19:05:40.567114  2431 net.cpp:165] Memory required for data: 1288630336
I1102 19:05:40.567133  2431 layer_factory.hpp:77] Creating layer conv17_1/relu
I1102 19:05:40.567139  2431 net.cpp:100] Creating Layer conv17_1/relu
I1102 19:05:40.567142  2431 net.cpp:434] conv17_1/relu <- conv17_1
I1102 19:05:40.567147  2431 net.cpp:395] conv17_1/relu -> conv17_1 (in-place)
I1102 19:05:40.567391  2431 net.cpp:150] Setting up conv17_1/relu
I1102 19:05:40.567399  2431 net.cpp:157] Top shape: 8 64 2 2 (2048)
I1102 19:05:40.567404  2431 net.cpp:165] Memory required for data: 1288638528
I1102 19:05:40.567409  2431 layer_factory.hpp:77] Creating layer conv17_2
I1102 19:05:40.567416  2431 net.cpp:100] Creating Layer conv17_2
I1102 19:05:40.567420  2431 net.cpp:434] conv17_2 <- conv17_1
I1102 19:05:40.567425  2431 net.cpp:408] conv17_2 -> conv17_2
I1102 19:05:40.581943  2431 net.cpp:150] Setting up conv17_2
I1102 19:05:40.581962  2431 net.cpp:157] Top shape: 8 128 1 1 (1024)
I1102 19:05:40.581966  2431 net.cpp:165] Memory required for data: 1288642624
I1102 19:05:40.581987  2431 layer_factory.hpp:77] Creating layer conv17_2/bn
I1102 19:05:40.581995  2431 net.cpp:100] Creating Layer conv17_2/bn
I1102 19:05:40.582013  2431 net.cpp:434] conv17_2/bn <- conv17_2
I1102 19:05:40.582020  2431 net.cpp:395] conv17_2/bn -> conv17_2 (in-place)
I1102 19:05:40.582319  2431 net.cpp:150] Setting up conv17_2/bn
I1102 19:05:40.582329  2431 net.cpp:157] Top shape: 8 128 1 1 (1024)
I1102 19:05:40.582335  2431 net.cpp:165] Memory required for data: 1288646720
I1102 19:05:40.582358  2431 layer_factory.hpp:77] Creating layer conv17_2/scale
I1102 19:05:40.582381  2431 net.cpp:100] Creating Layer conv17_2/scale
I1102 19:05:40.582401  2431 net.cpp:434] conv17_2/scale <- conv17_2
I1102 19:05:40.582423  2431 net.cpp:395] conv17_2/scale -> conv17_2 (in-place)
I1102 19:05:40.582525  2431 layer_factory.hpp:77] Creating layer conv17_2/scale
I1102 19:05:40.582736  2431 net.cpp:150] Setting up conv17_2/scale
I1102 19:05:40.582743  2431 net.cpp:157] Top shape: 8 128 1 1 (1024)
I1102 19:05:40.582749  2431 net.cpp:165] Memory required for data: 1288650816
I1102 19:05:40.582756  2431 layer_factory.hpp:77] Creating layer conv17_2/relu
I1102 19:05:40.582779  2431 net.cpp:100] Creating Layer conv17_2/relu
I1102 19:05:40.582811  2431 net.cpp:434] conv17_2/relu <- conv17_2
I1102 19:05:40.582832  2431 net.cpp:395] conv17_2/relu -> conv17_2 (in-place)
I1102 19:05:40.583119  2431 net.cpp:150] Setting up conv17_2/relu
I1102 19:05:40.583128  2431 net.cpp:157] Top shape: 8 128 1 1 (1024)
I1102 19:05:40.583133  2431 net.cpp:165] Memory required for data: 1288654912
I1102 19:05:40.583138  2431 layer_factory.hpp:77] Creating layer conv17_2_conv17_2/relu_0_split
I1102 19:05:40.583161  2431 net.cpp:100] Creating Layer conv17_2_conv17_2/relu_0_split
I1102 19:05:40.583180  2431 net.cpp:434] conv17_2_conv17_2/relu_0_split <- conv17_2
I1102 19:05:40.583200  2431 net.cpp:408] conv17_2_conv17_2/relu_0_split -> conv17_2_conv17_2/relu_0_split_0
I1102 19:05:40.583221  2431 net.cpp:408] conv17_2_conv17_2/relu_0_split -> conv17_2_conv17_2/relu_0_split_1
I1102 19:05:40.583245  2431 net.cpp:408] conv17_2_conv17_2/relu_0_split -> conv17_2_conv17_2/relu_0_split_2
I1102 19:05:40.583344  2431 net.cpp:150] Setting up conv17_2_conv17_2/relu_0_split
I1102 19:05:40.583353  2431 net.cpp:157] Top shape: 8 128 1 1 (1024)
I1102 19:05:40.583356  2431 net.cpp:157] Top shape: 8 128 1 1 (1024)
I1102 19:05:40.583359  2431 net.cpp:157] Top shape: 8 128 1 1 (1024)
I1102 19:05:40.583362  2431 net.cpp:165] Memory required for data: 1288667200
I1102 19:05:40.583379  2431 layer_factory.hpp:77] Creating layer conv11_mbox_loc
I1102 19:05:40.583389  2431 net.cpp:100] Creating Layer conv11_mbox_loc
I1102 19:05:40.583406  2431 net.cpp:434] conv11_mbox_loc <- conv11_conv11/relu_0_split_1
I1102 19:05:40.583412  2431 net.cpp:408] conv11_mbox_loc -> conv11_mbox_loc
I1102 19:05:40.597255  2431 net.cpp:150] Setting up conv11_mbox_loc
I1102 19:05:40.597281  2431 net.cpp:157] Top shape: 8 12 19 19 (34656)
I1102 19:05:40.597287  2431 net.cpp:165] Memory required for data: 1288805824
I1102 19:05:40.597297  2431 layer_factory.hpp:77] Creating layer conv11_mbox_loc_perm
I1102 19:05:40.597314  2431 net.cpp:100] Creating Layer conv11_mbox_loc_perm
I1102 19:05:40.597337  2431 net.cpp:434] conv11_mbox_loc_perm <- conv11_mbox_loc
I1102 19:05:40.597363  2431 net.cpp:408] conv11_mbox_loc_perm -> conv11_mbox_loc_perm
I1102 19:05:40.597535  2431 net.cpp:150] Setting up conv11_mbox_loc_perm
I1102 19:05:40.597545  2431 net.cpp:157] Top shape: 8 19 19 12 (34656)
I1102 19:05:40.597550  2431 net.cpp:165] Memory required for data: 1288944448
I1102 19:05:40.597555  2431 layer_factory.hpp:77] Creating layer conv11_mbox_loc_flat
I1102 19:05:40.597563  2431 net.cpp:100] Creating Layer conv11_mbox_loc_flat
I1102 19:05:40.597568  2431 net.cpp:434] conv11_mbox_loc_flat <- conv11_mbox_loc_perm
I1102 19:05:40.597576  2431 net.cpp:408] conv11_mbox_loc_flat -> conv11_mbox_loc_flat
I1102 19:05:40.597635  2431 net.cpp:150] Setting up conv11_mbox_loc_flat
I1102 19:05:40.597645  2431 net.cpp:157] Top shape: 8 4332 (34656)
I1102 19:05:40.597649  2431 net.cpp:165] Memory required for data: 1289083072
I1102 19:05:40.597667  2431 layer_factory.hpp:77] Creating layer conv11_mbox_conf_new
I1102 19:05:40.597694  2431 net.cpp:100] Creating Layer conv11_mbox_conf_new
I1102 19:05:40.597713  2431 net.cpp:434] conv11_mbox_conf_new <- conv11_conv11/relu_0_split_2
I1102 19:05:40.597723  2431 net.cpp:408] conv11_mbox_conf_new -> conv11_mbox_conf
I1102 19:05:40.599553  2431 net.cpp:150] Setting up conv11_mbox_conf_new
I1102 19:05:40.599563  2431 net.cpp:157] Top shape: 8 63 19 19 (181944)
I1102 19:05:40.599580  2431 net.cpp:165] Memory required for data: 1289810848
I1102 19:05:40.599586  2431 layer_factory.hpp:77] Creating layer conv11_mbox_conf_perm
I1102 19:05:40.599606  2431 net.cpp:100] Creating Layer conv11_mbox_conf_perm
I1102 19:05:40.599611  2431 net.cpp:434] conv11_mbox_conf_perm <- conv11_mbox_conf
I1102 19:05:40.599616  2431 net.cpp:408] conv11_mbox_conf_perm -> conv11_mbox_conf_perm
I1102 19:05:40.599757  2431 net.cpp:150] Setting up conv11_mbox_conf_perm
I1102 19:05:40.599762  2431 net.cpp:157] Top shape: 8 19 19 63 (181944)
I1102 19:05:40.599766  2431 net.cpp:165] Memory required for data: 1290538624
I1102 19:05:40.599768  2431 layer_factory.hpp:77] Creating layer conv11_mbox_conf_flat
I1102 19:05:40.599798  2431 net.cpp:100] Creating Layer conv11_mbox_conf_flat
I1102 19:05:40.599802  2431 net.cpp:434] conv11_mbox_conf_flat <- conv11_mbox_conf_perm
I1102 19:05:40.599807  2431 net.cpp:408] conv11_mbox_conf_flat -> conv11_mbox_conf_flat
I1102 19:05:40.599828  2431 net.cpp:150] Setting up conv11_mbox_conf_flat
I1102 19:05:40.599845  2431 net.cpp:157] Top shape: 8 22743 (181944)
I1102 19:05:40.599848  2431 net.cpp:165] Memory required for data: 1291266400
I1102 19:05:40.599851  2431 layer_factory.hpp:77] Creating layer conv11_mbox_priorbox
I1102 19:05:40.599858  2431 net.cpp:100] Creating Layer conv11_mbox_priorbox
I1102 19:05:40.599875  2431 net.cpp:434] conv11_mbox_priorbox <- conv11_conv11/relu_0_split_3
I1102 19:05:40.599880  2431 net.cpp:434] conv11_mbox_priorbox <- data_data_0_split_1
I1102 19:05:40.599885  2431 net.cpp:408] conv11_mbox_priorbox -> conv11_mbox_priorbox
I1102 19:05:40.599921  2431 net.cpp:150] Setting up conv11_mbox_priorbox
I1102 19:05:40.599926  2431 net.cpp:157] Top shape: 1 2 4332 (8664)
I1102 19:05:40.599930  2431 net.cpp:165] Memory required for data: 1291301056
I1102 19:05:40.599932  2431 layer_factory.hpp:77] Creating layer conv13_mbox_loc
I1102 19:05:40.599939  2431 net.cpp:100] Creating Layer conv13_mbox_loc
I1102 19:05:40.599942  2431 net.cpp:434] conv13_mbox_loc <- conv13_conv13/relu_0_split_1
I1102 19:05:40.599948  2431 net.cpp:408] conv13_mbox_loc -> conv13_mbox_loc
I1102 19:05:40.606073  2431 net.cpp:150] Setting up conv13_mbox_loc
I1102 19:05:40.606094  2431 net.cpp:157] Top shape: 8 24 10 10 (19200)
I1102 19:05:40.606097  2431 net.cpp:165] Memory required for data: 1291377856
I1102 19:05:40.606104  2431 layer_factory.hpp:77] Creating layer conv13_mbox_loc_perm
I1102 19:05:40.606127  2431 net.cpp:100] Creating Layer conv13_mbox_loc_perm
I1102 19:05:40.606133  2431 net.cpp:434] conv13_mbox_loc_perm <- conv13_mbox_loc
I1102 19:05:40.606138  2431 net.cpp:408] conv13_mbox_loc_perm -> conv13_mbox_loc_perm
I1102 19:05:40.606276  2431 net.cpp:150] Setting up conv13_mbox_loc_perm
I1102 19:05:40.606282  2431 net.cpp:157] Top shape: 8 10 10 24 (19200)
I1102 19:05:40.606286  2431 net.cpp:165] Memory required for data: 1291454656
I1102 19:05:40.606288  2431 layer_factory.hpp:77] Creating layer conv13_mbox_loc_flat
I1102 19:05:40.606307  2431 net.cpp:100] Creating Layer conv13_mbox_loc_flat
I1102 19:05:40.606309  2431 net.cpp:434] conv13_mbox_loc_flat <- conv13_mbox_loc_perm
I1102 19:05:40.606329  2431 net.cpp:408] conv13_mbox_loc_flat -> conv13_mbox_loc_flat
I1102 19:05:40.606362  2431 net.cpp:150] Setting up conv13_mbox_loc_flat
I1102 19:05:40.606369  2431 net.cpp:157] Top shape: 8 2400 (19200)
I1102 19:05:40.606374  2431 net.cpp:165] Memory required for data: 1291531456
I1102 19:05:40.606392  2431 layer_factory.hpp:77] Creating layer conv13_mbox_conf_new
I1102 19:05:40.606401  2431 net.cpp:100] Creating Layer conv13_mbox_conf_new
I1102 19:05:40.606406  2431 net.cpp:434] conv13_mbox_conf_new <- conv13_conv13/relu_0_split_2
I1102 19:05:40.606411  2431 net.cpp:408] conv13_mbox_conf_new -> conv13_mbox_conf
I1102 19:05:40.624215  2431 net.cpp:150] Setting up conv13_mbox_conf_new
I1102 19:05:40.624233  2431 net.cpp:157] Top shape: 8 126 10 10 (100800)
I1102 19:05:40.624236  2431 net.cpp:165] Memory required for data: 1291934656
I1102 19:05:40.624256  2431 layer_factory.hpp:77] Creating layer conv13_mbox_conf_perm
I1102 19:05:40.624266  2431 net.cpp:100] Creating Layer conv13_mbox_conf_perm
I1102 19:05:40.624271  2431 net.cpp:434] conv13_mbox_conf_perm <- conv13_mbox_conf
I1102 19:05:40.624279  2431 net.cpp:408] conv13_mbox_conf_perm -> conv13_mbox_conf_perm
I1102 19:05:40.624439  2431 net.cpp:150] Setting up conv13_mbox_conf_perm
I1102 19:05:40.624446  2431 net.cpp:157] Top shape: 8 10 10 126 (100800)
I1102 19:05:40.624449  2431 net.cpp:165] Memory required for data: 1292337856
I1102 19:05:40.624452  2431 layer_factory.hpp:77] Creating layer conv13_mbox_conf_flat
I1102 19:05:40.624457  2431 net.cpp:100] Creating Layer conv13_mbox_conf_flat
I1102 19:05:40.624485  2431 net.cpp:434] conv13_mbox_conf_flat <- conv13_mbox_conf_perm
I1102 19:05:40.624490  2431 net.cpp:408] conv13_mbox_conf_flat -> conv13_mbox_conf_flat
I1102 19:05:40.624511  2431 net.cpp:150] Setting up conv13_mbox_conf_flat
I1102 19:05:40.624531  2431 net.cpp:157] Top shape: 8 12600 (100800)
I1102 19:05:40.624533  2431 net.cpp:165] Memory required for data: 1292741056
I1102 19:05:40.624549  2431 layer_factory.hpp:77] Creating layer conv13_mbox_priorbox
I1102 19:05:40.624555  2431 net.cpp:100] Creating Layer conv13_mbox_priorbox
I1102 19:05:40.624573  2431 net.cpp:434] conv13_mbox_priorbox <- conv13_conv13/relu_0_split_3
I1102 19:05:40.624578  2431 net.cpp:434] conv13_mbox_priorbox <- data_data_0_split_2
I1102 19:05:40.624596  2431 net.cpp:408] conv13_mbox_priorbox -> conv13_mbox_priorbox
I1102 19:05:40.624634  2431 net.cpp:150] Setting up conv13_mbox_priorbox
I1102 19:05:40.624640  2431 net.cpp:157] Top shape: 1 2 2400 (4800)
I1102 19:05:40.624644  2431 net.cpp:165] Memory required for data: 1292760256
I1102 19:05:40.624646  2431 layer_factory.hpp:77] Creating layer conv14_2_mbox_loc
I1102 19:05:40.624655  2431 net.cpp:100] Creating Layer conv14_2_mbox_loc
I1102 19:05:40.624670  2431 net.cpp:434] conv14_2_mbox_loc <- conv14_2_conv14_2/relu_0_split_1
I1102 19:05:40.624676  2431 net.cpp:408] conv14_2_mbox_loc -> conv14_2_mbox_loc
I1102 19:05:40.631906  2431 net.cpp:150] Setting up conv14_2_mbox_loc
I1102 19:05:40.631922  2431 net.cpp:157] Top shape: 8 24 5 5 (4800)
I1102 19:05:40.631928  2431 net.cpp:165] Memory required for data: 1292779456
I1102 19:05:40.631950  2431 layer_factory.hpp:77] Creating layer conv14_2_mbox_loc_perm
I1102 19:05:40.631960  2431 net.cpp:100] Creating Layer conv14_2_mbox_loc_perm
I1102 19:05:40.631968  2431 net.cpp:434] conv14_2_mbox_loc_perm <- conv14_2_mbox_loc
I1102 19:05:40.631976  2431 net.cpp:408] conv14_2_mbox_loc_perm -> conv14_2_mbox_loc_perm
I1102 19:05:40.636234  2431 net.cpp:150] Setting up conv14_2_mbox_loc_perm
I1102 19:05:40.636255  2431 net.cpp:157] Top shape: 8 5 5 24 (4800)
I1102 19:05:40.636258  2431 net.cpp:165] Memory required for data: 1292798656
I1102 19:05:40.636262  2431 layer_factory.hpp:77] Creating layer conv14_2_mbox_loc_flat
I1102 19:05:40.636286  2431 net.cpp:100] Creating Layer conv14_2_mbox_loc_flat
I1102 19:05:40.636291  2431 net.cpp:434] conv14_2_mbox_loc_flat <- conv14_2_mbox_loc_perm
I1102 19:05:40.636297  2431 net.cpp:408] conv14_2_mbox_loc_flat -> conv14_2_mbox_loc_flat
I1102 19:05:40.636353  2431 net.cpp:150] Setting up conv14_2_mbox_loc_flat
I1102 19:05:40.636358  2431 net.cpp:157] Top shape: 8 600 (4800)
I1102 19:05:40.636361  2431 net.cpp:165] Memory required for data: 1292817856
I1102 19:05:40.636378  2431 layer_factory.hpp:77] Creating layer conv14_2_mbox_conf_new
I1102 19:05:40.636387  2431 net.cpp:100] Creating Layer conv14_2_mbox_conf_new
I1102 19:05:40.636392  2431 net.cpp:434] conv14_2_mbox_conf_new <- conv14_2_conv14_2/relu_0_split_2
I1102 19:05:40.636399  2431 net.cpp:408] conv14_2_mbox_conf_new -> conv14_2_mbox_conf
I1102 19:05:40.644490  2431 net.cpp:150] Setting up conv14_2_mbox_conf_new
I1102 19:05:40.644515  2431 net.cpp:157] Top shape: 8 126 5 5 (25200)
I1102 19:05:40.644536  2431 net.cpp:165] Memory required for data: 1292918656
I1102 19:05:40.644559  2431 layer_factory.hpp:77] Creating layer conv14_2_mbox_conf_perm
I1102 19:05:40.644587  2431 net.cpp:100] Creating Layer conv14_2_mbox_conf_perm
I1102 19:05:40.644608  2431 net.cpp:434] conv14_2_mbox_conf_perm <- conv14_2_mbox_conf
I1102 19:05:40.644619  2431 net.cpp:408] conv14_2_mbox_conf_perm -> conv14_2_mbox_conf_perm
I1102 19:05:40.644775  2431 net.cpp:150] Setting up conv14_2_mbox_conf_perm
I1102 19:05:40.644785  2431 net.cpp:157] Top shape: 8 5 5 126 (25200)
I1102 19:05:40.644791  2431 net.cpp:165] Memory required for data: 1293019456
I1102 19:05:40.644811  2431 layer_factory.hpp:77] Creating layer conv14_2_mbox_conf_flat
I1102 19:05:40.644824  2431 net.cpp:100] Creating Layer conv14_2_mbox_conf_flat
I1102 19:05:40.644843  2431 net.cpp:434] conv14_2_mbox_conf_flat <- conv14_2_mbox_conf_perm
I1102 19:05:40.644866  2431 net.cpp:408] conv14_2_mbox_conf_flat -> conv14_2_mbox_conf_flat
I1102 19:05:40.644927  2431 net.cpp:150] Setting up conv14_2_mbox_conf_flat
I1102 19:05:40.644933  2431 net.cpp:157] Top shape: 8 3150 (25200)
I1102 19:05:40.644938  2431 net.cpp:165] Memory required for data: 1293120256
I1102 19:05:40.644942  2431 layer_factory.hpp:77] Creating layer conv14_2_mbox_priorbox
I1102 19:05:40.644963  2431 net.cpp:100] Creating Layer conv14_2_mbox_priorbox
I1102 19:05:40.644982  2431 net.cpp:434] conv14_2_mbox_priorbox <- conv14_2_conv14_2/relu_0_split_3
I1102 19:05:40.644989  2431 net.cpp:434] conv14_2_mbox_priorbox <- data_data_0_split_3
I1102 19:05:40.644999  2431 net.cpp:408] conv14_2_mbox_priorbox -> conv14_2_mbox_priorbox
I1102 19:05:40.645041  2431 net.cpp:150] Setting up conv14_2_mbox_priorbox
I1102 19:05:40.645051  2431 net.cpp:157] Top shape: 1 2 600 (1200)
I1102 19:05:40.645056  2431 net.cpp:165] Memory required for data: 1293125056
I1102 19:05:40.645061  2431 layer_factory.hpp:77] Creating layer conv15_2_mbox_loc
I1102 19:05:40.645087  2431 net.cpp:100] Creating Layer conv15_2_mbox_loc
I1102 19:05:40.645093  2431 net.cpp:434] conv15_2_mbox_loc <- conv15_2_conv15_2/relu_0_split_1
I1102 19:05:40.645103  2431 net.cpp:408] conv15_2_mbox_loc -> conv15_2_mbox_loc
I1102 19:05:40.646417  2431 net.cpp:150] Setting up conv15_2_mbox_loc
I1102 19:05:40.646431  2431 net.cpp:157] Top shape: 8 24 3 3 (1728)
I1102 19:05:40.646437  2431 net.cpp:165] Memory required for data: 1293131968
I1102 19:05:40.646446  2431 layer_factory.hpp:77] Creating layer conv15_2_mbox_loc_perm
I1102 19:05:40.646456  2431 net.cpp:100] Creating Layer conv15_2_mbox_loc_perm
I1102 19:05:40.646473  2431 net.cpp:434] conv15_2_mbox_loc_perm <- conv15_2_mbox_loc
I1102 19:05:40.646483  2431 net.cpp:408] conv15_2_mbox_loc_perm -> conv15_2_mbox_loc_perm
I1102 19:05:40.646639  2431 net.cpp:150] Setting up conv15_2_mbox_loc_perm
I1102 19:05:40.646648  2431 net.cpp:157] Top shape: 8 3 3 24 (1728)
I1102 19:05:40.646653  2431 net.cpp:165] Memory required for data: 1293138880
I1102 19:05:40.646659  2431 layer_factory.hpp:77] Creating layer conv15_2_mbox_loc_flat
I1102 19:05:40.646667  2431 net.cpp:100] Creating Layer conv15_2_mbox_loc_flat
I1102 19:05:40.646672  2431 net.cpp:434] conv15_2_mbox_loc_flat <- conv15_2_mbox_loc_perm
I1102 19:05:40.646682  2431 net.cpp:408] conv15_2_mbox_loc_flat -> conv15_2_mbox_loc_flat
I1102 19:05:40.646723  2431 net.cpp:150] Setting up conv15_2_mbox_loc_flat
I1102 19:05:40.646733  2431 net.cpp:157] Top shape: 8 216 (1728)
I1102 19:05:40.646737  2431 net.cpp:165] Memory required for data: 1293145792
I1102 19:05:40.646742  2431 layer_factory.hpp:77] Creating layer conv15_2_mbox_conf_new
I1102 19:05:40.646754  2431 net.cpp:100] Creating Layer conv15_2_mbox_conf_new
I1102 19:05:40.646759  2431 net.cpp:434] conv15_2_mbox_conf_new <- conv15_2_conv15_2/relu_0_split_2
I1102 19:05:40.646767  2431 net.cpp:408] conv15_2_mbox_conf_new -> conv15_2_mbox_conf
I1102 19:05:40.656800  2431 net.cpp:150] Setting up conv15_2_mbox_conf_new
I1102 19:05:40.656816  2431 net.cpp:157] Top shape: 8 126 3 3 (9072)
I1102 19:05:40.656819  2431 net.cpp:165] Memory required for data: 1293182080
I1102 19:05:40.656826  2431 layer_factory.hpp:77] Creating layer conv15_2_mbox_conf_perm
I1102 19:05:40.656833  2431 net.cpp:100] Creating Layer conv15_2_mbox_conf_perm
I1102 19:05:40.656852  2431 net.cpp:434] conv15_2_mbox_conf_perm <- conv15_2_mbox_conf
I1102 19:05:40.656859  2431 net.cpp:408] conv15_2_mbox_conf_perm -> conv15_2_mbox_conf_perm
I1102 19:05:40.657007  2431 net.cpp:150] Setting up conv15_2_mbox_conf_perm
I1102 19:05:40.657013  2431 net.cpp:157] Top shape: 8 3 3 126 (9072)
I1102 19:05:40.657016  2431 net.cpp:165] Memory required for data: 1293218368
I1102 19:05:40.657019  2431 layer_factory.hpp:77] Creating layer conv15_2_mbox_conf_flat
I1102 19:05:40.657025  2431 net.cpp:100] Creating Layer conv15_2_mbox_conf_flat
I1102 19:05:40.657043  2431 net.cpp:434] conv15_2_mbox_conf_flat <- conv15_2_mbox_conf_perm
I1102 19:05:40.657059  2431 net.cpp:408] conv15_2_mbox_conf_flat -> conv15_2_mbox_conf_flat
I1102 19:05:40.657094  2431 net.cpp:150] Setting up conv15_2_mbox_conf_flat
I1102 19:05:40.657099  2431 net.cpp:157] Top shape: 8 1134 (9072)
I1102 19:05:40.657101  2431 net.cpp:165] Memory required for data: 1293254656
I1102 19:05:40.657104  2431 layer_factory.hpp:77] Creating layer conv15_2_mbox_priorbox
I1102 19:05:40.657110  2431 net.cpp:100] Creating Layer conv15_2_mbox_priorbox
I1102 19:05:40.657129  2431 net.cpp:434] conv15_2_mbox_priorbox <- conv15_2_conv15_2/relu_0_split_3
I1102 19:05:40.657133  2431 net.cpp:434] conv15_2_mbox_priorbox <- data_data_0_split_4
I1102 19:05:40.657140  2431 net.cpp:408] conv15_2_mbox_priorbox -> conv15_2_mbox_priorbox
I1102 19:05:40.657176  2431 net.cpp:150] Setting up conv15_2_mbox_priorbox
I1102 19:05:40.657181  2431 net.cpp:157] Top shape: 1 2 216 (432)
I1102 19:05:40.657183  2431 net.cpp:165] Memory required for data: 1293256384
I1102 19:05:40.657186  2431 layer_factory.hpp:77] Creating layer conv16_2_mbox_loc
I1102 19:05:40.657212  2431 net.cpp:100] Creating Layer conv16_2_mbox_loc
I1102 19:05:40.657215  2431 net.cpp:434] conv16_2_mbox_loc <- conv16_2_conv16_2/relu_0_split_1
I1102 19:05:40.657223  2431 net.cpp:408] conv16_2_mbox_loc -> conv16_2_mbox_loc
I1102 19:05:40.662611  2431 net.cpp:150] Setting up conv16_2_mbox_loc
I1102 19:05:40.662631  2431 net.cpp:157] Top shape: 8 24 2 2 (768)
I1102 19:05:40.662637  2431 net.cpp:165] Memory required for data: 1293259456
I1102 19:05:40.662644  2431 layer_factory.hpp:77] Creating layer conv16_2_mbox_loc_perm
I1102 19:05:40.662668  2431 net.cpp:100] Creating Layer conv16_2_mbox_loc_perm
I1102 19:05:40.662677  2431 net.cpp:434] conv16_2_mbox_loc_perm <- conv16_2_mbox_loc
I1102 19:05:40.662683  2431 net.cpp:408] conv16_2_mbox_loc_perm -> conv16_2_mbox_loc_perm
I1102 19:05:40.662819  2431 net.cpp:150] Setting up conv16_2_mbox_loc_perm
I1102 19:05:40.662827  2431 net.cpp:157] Top shape: 8 2 2 24 (768)
I1102 19:05:40.662829  2431 net.cpp:165] Memory required for data: 1293262528
I1102 19:05:40.662832  2431 layer_factory.hpp:77] Creating layer conv16_2_mbox_loc_flat
I1102 19:05:40.662838  2431 net.cpp:100] Creating Layer conv16_2_mbox_loc_flat
I1102 19:05:40.662842  2431 net.cpp:434] conv16_2_mbox_loc_flat <- conv16_2_mbox_loc_perm
I1102 19:05:40.662859  2431 net.cpp:408] conv16_2_mbox_loc_flat -> conv16_2_mbox_loc_flat
I1102 19:05:40.662880  2431 net.cpp:150] Setting up conv16_2_mbox_loc_flat
I1102 19:05:40.662900  2431 net.cpp:157] Top shape: 8 96 (768)
I1102 19:05:40.662904  2431 net.cpp:165] Memory required for data: 1293265600
I1102 19:05:40.662906  2431 layer_factory.hpp:77] Creating layer conv16_2_mbox_conf_new
I1102 19:05:40.662915  2431 net.cpp:100] Creating Layer conv16_2_mbox_conf_new
I1102 19:05:40.662935  2431 net.cpp:434] conv16_2_mbox_conf_new <- conv16_2_conv16_2/relu_0_split_2
I1102 19:05:40.662940  2431 net.cpp:408] conv16_2_mbox_conf_new -> conv16_2_mbox_conf
I1102 19:05:40.673688  2431 net.cpp:150] Setting up conv16_2_mbox_conf_new
I1102 19:05:40.673717  2431 net.cpp:157] Top shape: 8 126 2 2 (4032)
I1102 19:05:40.673722  2431 net.cpp:165] Memory required for data: 1293281728
I1102 19:05:40.673733  2431 layer_factory.hpp:77] Creating layer conv16_2_mbox_conf_perm
I1102 19:05:40.673746  2431 net.cpp:100] Creating Layer conv16_2_mbox_conf_perm
I1102 19:05:40.673754  2431 net.cpp:434] conv16_2_mbox_conf_perm <- conv16_2_mbox_conf
I1102 19:05:40.673763  2431 net.cpp:408] conv16_2_mbox_conf_perm -> conv16_2_mbox_conf_perm
I1102 19:05:40.673900  2431 net.cpp:150] Setting up conv16_2_mbox_conf_perm
I1102 19:05:40.673908  2431 net.cpp:157] Top shape: 8 2 2 126 (4032)
I1102 19:05:40.673913  2431 net.cpp:165] Memory required for data: 1293297856
I1102 19:05:40.673918  2431 layer_factory.hpp:77] Creating layer conv16_2_mbox_conf_flat
I1102 19:05:40.673926  2431 net.cpp:100] Creating Layer conv16_2_mbox_conf_flat
I1102 19:05:40.673931  2431 net.cpp:434] conv16_2_mbox_conf_flat <- conv16_2_mbox_conf_perm
I1102 19:05:40.673936  2431 net.cpp:408] conv16_2_mbox_conf_flat -> conv16_2_mbox_conf_flat
I1102 19:05:40.673976  2431 net.cpp:150] Setting up conv16_2_mbox_conf_flat
I1102 19:05:40.673985  2431 net.cpp:157] Top shape: 8 504 (4032)
I1102 19:05:40.673988  2431 net.cpp:165] Memory required for data: 1293313984
I1102 19:05:40.673991  2431 layer_factory.hpp:77] Creating layer conv16_2_mbox_priorbox
I1102 19:05:40.674010  2431 net.cpp:100] Creating Layer conv16_2_mbox_priorbox
I1102 19:05:40.674015  2431 net.cpp:434] conv16_2_mbox_priorbox <- conv16_2_conv16_2/relu_0_split_3
I1102 19:05:40.674034  2431 net.cpp:434] conv16_2_mbox_priorbox <- data_data_0_split_5
I1102 19:05:40.674041  2431 net.cpp:408] conv16_2_mbox_priorbox -> conv16_2_mbox_priorbox
I1102 19:05:40.674095  2431 net.cpp:150] Setting up conv16_2_mbox_priorbox
I1102 19:05:40.674101  2431 net.cpp:157] Top shape: 1 2 96 (192)
I1102 19:05:40.674105  2431 net.cpp:165] Memory required for data: 1293314752
I1102 19:05:40.674109  2431 layer_factory.hpp:77] Creating layer conv17_2_mbox_loc
I1102 19:05:40.674136  2431 net.cpp:100] Creating Layer conv17_2_mbox_loc
I1102 19:05:40.674141  2431 net.cpp:434] conv17_2_mbox_loc <- conv17_2_conv17_2/relu_0_split_0
I1102 19:05:40.674150  2431 net.cpp:408] conv17_2_mbox_loc -> conv17_2_mbox_loc
I1102 19:05:40.681704  2431 net.cpp:150] Setting up conv17_2_mbox_loc
I1102 19:05:40.681716  2431 net.cpp:157] Top shape: 8 24 1 1 (192)
I1102 19:05:40.681720  2431 net.cpp:165] Memory required for data: 1293315520
I1102 19:05:40.681725  2431 layer_factory.hpp:77] Creating layer conv17_2_mbox_loc_perm
I1102 19:05:40.681746  2431 net.cpp:100] Creating Layer conv17_2_mbox_loc_perm
I1102 19:05:40.681751  2431 net.cpp:434] conv17_2_mbox_loc_perm <- conv17_2_mbox_loc
I1102 19:05:40.681757  2431 net.cpp:408] conv17_2_mbox_loc_perm -> conv17_2_mbox_loc_perm
I1102 19:05:40.681861  2431 net.cpp:150] Setting up conv17_2_mbox_loc_perm
I1102 19:05:40.681867  2431 net.cpp:157] Top shape: 8 1 1 24 (192)
I1102 19:05:40.681869  2431 net.cpp:165] Memory required for data: 1293316288
I1102 19:05:40.681872  2431 layer_factory.hpp:77] Creating layer conv17_2_mbox_loc_flat
I1102 19:05:40.681877  2431 net.cpp:100] Creating Layer conv17_2_mbox_loc_flat
I1102 19:05:40.681880  2431 net.cpp:434] conv17_2_mbox_loc_flat <- conv17_2_mbox_loc_perm
I1102 19:05:40.681900  2431 net.cpp:408] conv17_2_mbox_loc_flat -> conv17_2_mbox_loc_flat
I1102 19:05:40.681921  2431 net.cpp:150] Setting up conv17_2_mbox_loc_flat
I1102 19:05:40.681926  2431 net.cpp:157] Top shape: 8 24 (192)
I1102 19:05:40.681929  2431 net.cpp:165] Memory required for data: 1293317056
I1102 19:05:40.681932  2431 layer_factory.hpp:77] Creating layer conv17_2_mbox_conf_new
I1102 19:05:40.681939  2431 net.cpp:100] Creating Layer conv17_2_mbox_conf_new
I1102 19:05:40.681944  2431 net.cpp:434] conv17_2_mbox_conf_new <- conv17_2_conv17_2/relu_0_split_1
I1102 19:05:40.681949  2431 net.cpp:408] conv17_2_mbox_conf_new -> conv17_2_mbox_conf
I1102 19:05:40.683333  2431 net.cpp:150] Setting up conv17_2_mbox_conf_new
I1102 19:05:40.683343  2431 net.cpp:157] Top shape: 8 126 1 1 (1008)
I1102 19:05:40.683347  2431 net.cpp:165] Memory required for data: 1293321088
I1102 19:05:40.683351  2431 layer_factory.hpp:77] Creating layer conv17_2_mbox_conf_perm
I1102 19:05:40.683372  2431 net.cpp:100] Creating Layer conv17_2_mbox_conf_perm
I1102 19:05:40.683377  2431 net.cpp:434] conv17_2_mbox_conf_perm <- conv17_2_mbox_conf
I1102 19:05:40.683382  2431 net.cpp:408] conv17_2_mbox_conf_perm -> conv17_2_mbox_conf_perm
I1102 19:05:40.683485  2431 net.cpp:150] Setting up conv17_2_mbox_conf_perm
I1102 19:05:40.683490  2431 net.cpp:157] Top shape: 8 1 1 126 (1008)
I1102 19:05:40.683493  2431 net.cpp:165] Memory required for data: 1293325120
I1102 19:05:40.683496  2431 layer_factory.hpp:77] Creating layer conv17_2_mbox_conf_flat
I1102 19:05:40.683501  2431 net.cpp:100] Creating Layer conv17_2_mbox_conf_flat
I1102 19:05:40.683519  2431 net.cpp:434] conv17_2_mbox_conf_flat <- conv17_2_mbox_conf_perm
I1102 19:05:40.683523  2431 net.cpp:408] conv17_2_mbox_conf_flat -> conv17_2_mbox_conf_flat
I1102 19:05:40.683554  2431 net.cpp:150] Setting up conv17_2_mbox_conf_flat
I1102 19:05:40.683573  2431 net.cpp:157] Top shape: 8 126 (1008)
I1102 19:05:40.683575  2431 net.cpp:165] Memory required for data: 1293329152
I1102 19:05:40.683578  2431 layer_factory.hpp:77] Creating layer conv17_2_mbox_priorbox
I1102 19:05:40.683599  2431 net.cpp:100] Creating Layer conv17_2_mbox_priorbox
I1102 19:05:40.683604  2431 net.cpp:434] conv17_2_mbox_priorbox <- conv17_2_conv17_2/relu_0_split_2
I1102 19:05:40.683606  2431 net.cpp:434] conv17_2_mbox_priorbox <- data_data_0_split_6
I1102 19:05:40.683611  2431 net.cpp:408] conv17_2_mbox_priorbox -> conv17_2_mbox_priorbox
I1102 19:05:40.683647  2431 net.cpp:150] Setting up conv17_2_mbox_priorbox
I1102 19:05:40.683652  2431 net.cpp:157] Top shape: 1 2 24 (48)
I1102 19:05:40.683655  2431 net.cpp:165] Memory required for data: 1293329344
I1102 19:05:40.683658  2431 layer_factory.hpp:77] Creating layer mbox_loc
I1102 19:05:40.683663  2431 net.cpp:100] Creating Layer mbox_loc
I1102 19:05:40.683682  2431 net.cpp:434] mbox_loc <- conv11_mbox_loc_flat
I1102 19:05:40.683686  2431 net.cpp:434] mbox_loc <- conv13_mbox_loc_flat
I1102 19:05:40.683691  2431 net.cpp:434] mbox_loc <- conv14_2_mbox_loc_flat
I1102 19:05:40.683694  2431 net.cpp:434] mbox_loc <- conv15_2_mbox_loc_flat
I1102 19:05:40.683698  2431 net.cpp:434] mbox_loc <- conv16_2_mbox_loc_flat
I1102 19:05:40.683703  2431 net.cpp:434] mbox_loc <- conv17_2_mbox_loc_flat
I1102 19:05:40.683707  2431 net.cpp:408] mbox_loc -> mbox_loc
I1102 19:05:40.683755  2431 net.cpp:150] Setting up mbox_loc
I1102 19:05:40.683760  2431 net.cpp:157] Top shape: 8 7668 (61344)
I1102 19:05:40.683763  2431 net.cpp:165] Memory required for data: 1293574720
I1102 19:05:40.683765  2431 layer_factory.hpp:77] Creating layer mbox_conf
I1102 19:05:40.683770  2431 net.cpp:100] Creating Layer mbox_conf
I1102 19:05:40.683774  2431 net.cpp:434] mbox_conf <- conv11_mbox_conf_flat
I1102 19:05:40.683779  2431 net.cpp:434] mbox_conf <- conv13_mbox_conf_flat
I1102 19:05:40.683781  2431 net.cpp:434] mbox_conf <- conv14_2_mbox_conf_flat
I1102 19:05:40.683785  2431 net.cpp:434] mbox_conf <- conv15_2_mbox_conf_flat
I1102 19:05:40.683789  2431 net.cpp:434] mbox_conf <- conv16_2_mbox_conf_flat
I1102 19:05:40.683806  2431 net.cpp:434] mbox_conf <- conv17_2_mbox_conf_flat
I1102 19:05:40.683811  2431 net.cpp:408] mbox_conf -> mbox_conf
I1102 19:05:40.683830  2431 net.cpp:150] Setting up mbox_conf
I1102 19:05:40.683835  2431 net.cpp:157] Top shape: 8 40257 (322056)
I1102 19:05:40.683851  2431 net.cpp:165] Memory required for data: 1294862944
I1102 19:05:40.683854  2431 layer_factory.hpp:77] Creating layer mbox_priorbox
I1102 19:05:40.683859  2431 net.cpp:100] Creating Layer mbox_priorbox
I1102 19:05:40.683877  2431 net.cpp:434] mbox_priorbox <- conv11_mbox_priorbox
I1102 19:05:40.683881  2431 net.cpp:434] mbox_priorbox <- conv13_mbox_priorbox
I1102 19:05:40.683884  2431 net.cpp:434] mbox_priorbox <- conv14_2_mbox_priorbox
I1102 19:05:40.683888  2431 net.cpp:434] mbox_priorbox <- conv15_2_mbox_priorbox
I1102 19:05:40.683892  2431 net.cpp:434] mbox_priorbox <- conv16_2_mbox_priorbox
I1102 19:05:40.683894  2431 net.cpp:434] mbox_priorbox <- conv17_2_mbox_priorbox
I1102 19:05:40.683898  2431 net.cpp:408] mbox_priorbox -> mbox_priorbox
I1102 19:05:40.683930  2431 net.cpp:150] Setting up mbox_priorbox
I1102 19:05:40.683935  2431 net.cpp:157] Top shape: 1 2 7668 (15336)
I1102 19:05:40.683938  2431 net.cpp:165] Memory required for data: 1294924288
I1102 19:05:40.683941  2431 layer_factory.hpp:77] Creating layer mbox_conf_reshape
I1102 19:05:40.683964  2431 net.cpp:100] Creating Layer mbox_conf_reshape
I1102 19:05:40.683967  2431 net.cpp:434] mbox_conf_reshape <- mbox_conf
I1102 19:05:40.683971  2431 net.cpp:408] mbox_conf_reshape -> mbox_conf_reshape
I1102 19:05:40.688030  2431 net.cpp:150] Setting up mbox_conf_reshape
I1102 19:05:40.688056  2431 net.cpp:157] Top shape: 8 1917 21 (322056)
I1102 19:05:40.688060  2431 net.cpp:165] Memory required for data: 1296212512
I1102 19:05:40.688083  2431 layer_factory.hpp:77] Creating layer mbox_conf_softmax
I1102 19:05:40.688088  2431 net.cpp:100] Creating Layer mbox_conf_softmax
I1102 19:05:40.688092  2431 net.cpp:434] mbox_conf_softmax <- mbox_conf_reshape
I1102 19:05:40.688097  2431 net.cpp:408] mbox_conf_softmax -> mbox_conf_softmax
I1102 19:05:40.688350  2431 net.cpp:150] Setting up mbox_conf_softmax
I1102 19:05:40.688359  2431 net.cpp:157] Top shape: 8 1917 21 (322056)
I1102 19:05:40.688361  2431 net.cpp:165] Memory required for data: 1297500736
I1102 19:05:40.688364  2431 layer_factory.hpp:77] Creating layer mbox_conf_flatten
I1102 19:05:40.688370  2431 net.cpp:100] Creating Layer mbox_conf_flatten
I1102 19:05:40.688374  2431 net.cpp:434] mbox_conf_flatten <- mbox_conf_softmax
I1102 19:05:40.688377  2431 net.cpp:408] mbox_conf_flatten -> mbox_conf_flatten
I1102 19:05:40.688397  2431 net.cpp:150] Setting up mbox_conf_flatten
I1102 19:05:40.688403  2431 net.cpp:157] Top shape: 8 40257 (322056)
I1102 19:05:40.688406  2431 net.cpp:165] Memory required for data: 1298788960
I1102 19:05:40.688410  2431 layer_factory.hpp:77] Creating layer detection_out
I1102 19:05:40.688419  2431 net.cpp:100] Creating Layer detection_out
I1102 19:05:40.688423  2431 net.cpp:434] detection_out <- mbox_loc
I1102 19:05:40.688426  2431 net.cpp:434] detection_out <- mbox_conf_flatten
I1102 19:05:40.688431  2431 net.cpp:434] detection_out <- mbox_priorbox
I1102 19:05:40.688436  2431 net.cpp:408] detection_out -> detection_out
I1102 19:05:40.688485  2431 net.cpp:150] Setting up detection_out
I1102 19:05:40.688491  2431 net.cpp:157] Top shape: 1 1 1 7 (7)
I1102 19:05:40.688494  2431 net.cpp:165] Memory required for data: 1298788988
I1102 19:05:40.688498  2431 layer_factory.hpp:77] Creating layer detection_eval
I1102 19:05:40.688505  2431 net.cpp:100] Creating Layer detection_eval
I1102 19:05:40.688508  2431 net.cpp:434] detection_eval <- detection_out
I1102 19:05:40.688513  2431 net.cpp:434] detection_eval <- label
I1102 19:05:40.688516  2431 net.cpp:408] detection_eval -> detection_eval
I1102 19:05:40.688557  2431 net.cpp:150] Setting up detection_eval
I1102 19:05:40.688562  2431 net.cpp:157] Top shape: 1 1 21 5 (105)
I1102 19:05:40.688565  2431 net.cpp:165] Memory required for data: 1298789408
I1102 19:05:40.688568  2431 net.cpp:228] detection_eval does not need backward computation.
I1102 19:05:40.688572  2431 net.cpp:228] detection_out does not need backward computation.
I1102 19:05:40.688575  2431 net.cpp:228] mbox_conf_flatten does not need backward computation.
I1102 19:05:40.688580  2431 net.cpp:228] mbox_conf_softmax does not need backward computation.
…
